weights/fsrcnn_x2.pth (torch_old, 54998 bytes, 22 tensors)

first_part.0.weight f4 [56, 1, 5, 5]
0	0xbc8e94f3	-0.017405009
1	0x3d36bc09	0.044612918
2	0xbc92dd1b	-0.017927697
3	0x3d4e2e23	0.05033697
4	0xbd75fdea	-0.060056604
5	0x3e9d2206	0.3069002
6	0xbcc539a8	-0.024075344
7	0xbf0517d2	-0.5198947
8	0x3e05244b	0.13002126
9	0xbcc04142	-0.023468617
10	0xbeaccb29	-0.3374875
11	0x3fb34cf4	1.4007859
12	0x3e274ea6	0.16338596
13	0xbe40235f	-0.18763493
14	0x3ce54219	0.02798562
15	0xbf01e48b	-0.50739354
16	0xbf930fbd	-1.1489178
17	0x3f796b50	0.9742937
18	0xbe1ff95d	-0.15622468
19	0x3d8ff853	0.07029786
20	0x3ec48856	0.38385266
21	0xbe1865db	-0.14882605
22	0xbecd0bd1	-0.40048078
23	0x3e0bd987	0.13657199
24	0xbc30d4ad	-0.010792893
25	0x3d5db4b5	0.054127414
26	0xbe567ff2	-0.20947245
27	0x3dd5feb9	0.10448975
28	0x3cf494e6	0.029856157
29	0x3d23ac0a	0.03995899
30	0x3e1026a7	0.14077245
31	0x3e8a3b9a	0.26998597
32	0xbe58ecb7	-0.2118405
33	0xbd8fe09a	-0.07025261
34	0xbcd6cb93	-0.026220119
35	0xbf773430	-0.96564007
36	0x3dd4bf76	0.10388081
37	0x3f0a8bb1	0.541194
38	0x3ca2b101	0.019859793
39	0x3d1a3e93	0.03765733
40	0xbdbcad81	-0.09212781
41	0x3e1b3a87	0.15159045
42	0x3dd10cd3	0.10207524
43	0xbcab40cb	-0.02090492
44	0xbda5b5d1	-0.08091319
45	0x3d88deba	0.06683107
46	0x3d156564	0.036473647
47	0xbe1176db	-0.14205496
48	0x3da71f31	0.08160246
49	0x3c85b1f1	0.0163202
50	0x3c219544	0.009862248
51	0x3e0270d9	0.1273836
52	0xbe04a946	-0.12955198
53	0xbc8032e7	-0.015649272
54	0xbc3c77d2	-0.011503177
55	0xbc837401	-0.016046526
56	0xbc523c97	-0.012831829
57	0x3ff1152d	1.8834587
58	0xbb365bfe	-0.0027825828
59	0x3de433b5	0.11142675
60	0x3d9d8f07	0.07693296
61	0xbeedf0fe	-0.46472925
62	0xbfbd783f	-1.4802321
63	0xbd36bff1	-0.044616643
64	0xbd8db8f9	-0.06920046
65	0xbd9bd3bf	-0.07608747
66	0x3e55cbb9	0.20878495
67	0xbe51c439	-0.20485009
68	0x3dd6871f	0.10474991
69	0xbdabbb3b	-0.08385321
70	0x3ce16111	0.027512105
71	0x3d75af29	0.0599815
72	0xbd88b5de	-0.066753134
73	0x3d6f9e06	0.058500312
74	0x3cb82120	0.022476733
75	0x3cbb2e24	0.02284915
76	0x3ef6e162	0.48218828
77	0xbea2ecb8	-0.31821227
78	0xbdb3f5a1	-0.08787084
79	0xbd61ab08	-0.05509475
80	0x3e95e0ea	0.29273158
81	0xbfa84218	-1.314517
82	0xbec3f58e	-0.3827328
83	0x3eb4adb1	0.35288766
84	0xbe4883c1	-0.1958151
85	0xbec41620	-0.3829813
86	0x3e9795d0	0.29606485
87	0x3f918c18	1.1370878
88	0xbc059dd5	-0.008155306
89	0x3e247822	0.16061452
90	0x3df7c458	0.120979965
91	0x3ebb2b4a	0.36556464
92	0xbea9fd19	-0.3320091
93	0xbe8db559	-0.2767742
94	0x3d32af15	0.043624002
95	0x3d2f5687	0.04280713
96	0xbd18845a	-0.037235595
97	0x3d6b1923	0.05739702
98	0x3cf10d01	0.029425146
99	0x3d22f1d8	0.03978142
100	0xbf2986c9	-0.6622129
101	0x3f42c4be	0.76081455
102	0xbcace0db	-0.021103313
103	0xbe24d0ca	-0.16095272
104	0x3dc5d99d	0.09660647
105	0x3edb9a64	0.42891228
106	0x3f0a6f38	0.54075956
107	0xbff784fb	-1.9337457
108	0x3f066d16	0.525102
109	0xbd09a292	-0.033602305
110	0x3e69f728	0.22848189
111	0xbf965433	-1.1744446
112	0x3f6fb479	0.93634754
113	0xbe55f30f	-0.20893501
114	0x3b0ab610	0.0021165647
115	0xbee66d11	-0.45005086
116	0x3ef0e68f	0.47050902
117	0xbbe572a7	-0.007002193
118	0xbe9b0aec	-0.3028177
119	0x3db0c3e0	0.0863111
120	0x3e903331	0.28164056
121	0xbed35cf1	-0.41281846
122	0x3e924894	0.28570998
123	0x3db9d585	0.09073929
124	0xbdabb706	-0.08384518
125	0x3d62dc3a	0.055385806
126	0xbdc3218d	-0.09527884
127	0xbd8ab61c	-0.06773016
128	0x3d821865	0.06352309
129	0x3c3e6f21	0.011623175
130	0x3e367d8a	0.17821327
131	0x3d6ce9ba	0.057840087
132	0xbd8674c0	-0.06565237
133	0x3c9eb1ef	0.019371955
134	0xbd1806cc	-0.037115857
135	0x3fa8f8b9	1.3200904
136	0xbebec3d8	-0.37258792
137	0xbfbe7c77	-1.4881734
138	0x3db0f4ff	0.08640479
139	0x3cc4af49	0.024009364
140	0x3eb4034f	0.35158774
141	0xbea4ef78	-0.3221395
142	0x3e3da389	0.18519415
143	0xbdd27677	-0.102765016
144	0xbd4a7f91	-0.049438063
145	0x3e60604a	0.21911731
146	0xbe42bd7d	-0.19017597
147	0xbe30adab	-0.17253749
148	0x3cc9171c	0.024547152
149	0xbd01ec76	-0.031719647
150	0xbd624db1	-0.055249874
151	0x3bc6dfc7	0.006069157
152	0xbbf9e475	-0.007626111
153	0x3d8f029e	0.06982921
154	0x3c829030	0.015937895
155	0xbcff6382	-0.031175379
156	0x3d4cb1b6	0.049974166
157	0x3dde98cf	0.1086899
158	0xbe38f260	-0.18061209
159	0xbc145381	-0.009053112
160	0x3e69d1c2	0.22833923
161	0xbdbe0060	-0.09277415
162	0xc02c0427	-2.6877534
163	0xbe1dbe63	-0.15404658
164	0x3de6370d	0.11240969
165	0x3d23d844	0.04000117
166	0x3f2f23b2	0.6841384
167	0x3f6aa896	0.9166349
168	0x3eda0772	0.42583805
169	0x3d332888	0.043739825
170	0xbe18fe89	-0.14940847
171	0x3e3572dd	0.17719598
172	0x3e9cad8a	0.3060115
173	0xbddd066c	-0.107922405
174	0xbdc51cff	-0.09624671
175	0xbc74ba0a	-0.014936933
176	0xbd0fda9a	-0.035120584
177	0x3d746b1e	0.059672467
178	0xbd32e3b1	-0.043674175
179	0xbcce4a90	-0.025182039
180	0xbd4dd50c	-0.050252005
181	0x3dad4bcd	0.084617235
182	0xbd15e7f9	-0.03659818
183	0xbc0121a9	-0.00788156
184	0x3c525a76	0.01283895
185	0x3d69bf9a	0.05706749
186	0x3a453ca0	0.00075239874
187	0x3ee45ff5	0.4460446
188	0xbe3cd6ba	-0.18441287
189	0x3d111438	0.035419673
190	0x3d62d7d3	0.055381607
191	0xbd8d9a20	-0.06914163
192	0xbfab80ad	-1.3398644
193	0x3e7cf1c5	0.24701603
194	0xbd7c243d	-0.061557997
195	0xbce0f06b	-0.02745839
196	0x3d3d7dc1	0.046262506
197	0xbd8797f5	-0.066207804
198	0x3c3fcd21	0.011706621
199	0x3ca65db8	0.02030836
200	0x3c36898f	0.011141195
201	0xbe39f9fc	-0.18161768
202	0x3e2e91a6	0.17047748
203	0xbe0eb217	-0.13935123
204	0x3dcac766	0.099013135
205	0x3dcef181	0.10104657
206	0x3d66207c	0.056183323
207	0x3dd42db2	0.10360278
208	0xbcf9cf3c	-0.030494325
209	0xbdd1dbe4	-0.10247019
210	0xbc8376f8	-0.01604794
211	0x3ecab7c1	0.39593318
212	0xc07a34e0	-3.9094772
213	0x3f327985	0.69716674
214	0xbdfaeffd	-0.122528054
215	0xbe48213c	-0.19543928
216	0xbd4075b6	-0.046987258
217	0x3f6f682a	0.93518317
218	0xbecc55de	-0.3990926
219	0x3e132467	0.14369355
220	0x3dc93095	0.098237194
221	0x3d84f046	0.06491141
222	0xbe9091d8	-0.2823627
223	0x3e175067	0.14776765
224	0xbca4b716	-0.020106833
225	0x3e425b2a	0.18980089
226	0xbd1c271f	-0.038123246
227	0xbe069cd6	-0.13145766
228	0x3d1bfaf0	0.03808111
229	0x3d2fdd9e	0.04293596
230	0xbea4bf10	-0.3217702
231	0xbf66ffae	-0.90233886
232	0xbb02e17b	-0.0019970823
233	0xbde3083b	-0.11085554
234	0xbe640168	-0.22266161
235	0x3b59876a	0.0033192285
236	0xbec8a70f	-0.39189956
237	0x3f4acadd	0.79215795
238	0xbdd3fc05	-0.10350803
239	0x3dc81661	0.097698934
240	0x3cc88d99	0.024481582
241	0xbd8f2257	-0.06988972
242	0x3effa9da	0.49934274
243	0xbe2f70c0	-0.17132854
244	0x3ba08ef2	0.004899853
245	0x3c1d17b5	0.009588172
246	0xbdef3dfa	-0.11681743
247	0x3d0fdba6	0.035121582
248	0xbd20ef08	-0.039290458
249	0x3d005097	0.031326856
250	0xbc686f9a	-0.014186764
251	0x3c9a2618	0.018816993
252	0x3ad3d844	0.0016162475
253	0x3d1a86ef	0.03772634
254	0xbd88d970	-0.06682098
255	0x3d88056a	0.06641658

first_part.0.bias f4 [56]
0	0x3d181199	0.037126157
1	0x3dc84a7c	0.09779832
2	0xbe401573	-0.18758182
3	0xbdfd1e79	-0.12359328
4	0x3dbf3a5f	0.09337305
5	0xbdaf5ba0	-0.08562398
6	0x3dccc39c	0.09998247
7	0x3f300847	0.6876263
8	0x3e976d01	0.2957535
9	0x3e09ee83	0.13469891
10	0xbdc6b9bd	-0.097033955
11	0x3b80c73f	0.003930002
12	0x3de4bcea	0.11168845
13	0xbc4794ef	-0.012181505
14	0xbe02c25f	-0.12769459
15	0x3e1a0d74	0.15044194
16	0xbe98ed44	-0.2986852
17	0xbe23d069	-0.15997471
18	0xbe401b92	-0.18760517
19	0xbe74d9ab	-0.23911159
20	0xbe898834	-0.26861727
21	0x3ce4496e	0.027867045
22	0xbe143338	-0.14472663
23	0xbda9ee43	-0.08297398
24	0x3d0b9c3a	0.034084536
25	0xbd4d635d	-0.05014359
26	0xbebb6ea8	-0.36607862
27	0xbfa5c892	-1.2951834
28	0x3e9ad7b5	0.30242696
29	0x3e140d89	0.14458288
30	0x3cfc27a1	0.030780615
31	0xbdf17e9b	-0.11791726
32	0x3c247f79	0.0100401575
33	0x3de642d1	0.11243213
34	0xbe143dbc	-0.14476675
35	0x3bc69733	0.006060505
36	0xba4468b3	-0.0007492408
37	0xbf1436a1	-0.5789586
38	0xbe6b7a01	-0.2299576
39	0xbbe3f50e	-0.006956703
40	0xbf9dbe36	-1.2323673
41	0x3d974f26	0.07388143
42	0xbfe94d17	-1.8226651
43	0xbb8af485	-0.004240575
44	0x3ee98ca5	0.45615116
45	0xbe2e2932	-0.17007902
46	0x3d4579be	0.048211806
47	0xbd811c13	-0.06304183
48	0x3d413d0d	0.047177363
49	0x3bb6bcbc	0.005576698
50	0xbce8c689	-0.028414981
51	0x3d06e2aa	0.032931007
52	0x3dbcfbf0	0.09227741
53	0x3da8528b	0.08218869
54	0x396d4863	0.00022629047
55	0x3d9586e5	0.0730112

first_part.1.weight f4 [56]
0	0xc0111eb8	-2.2675
1	0x4064ccf5	3.5750096
2	0xbeb13085	-0.3460733
3	0xbe2fa31d	-0.17152067
4	0xbdd3ce7f	-0.103421204
5	0x3c310210	0.010803714
6	0xbe09041f	-0.13380478
7	0x40f49393	7.6430144
8	0x3b5aab5b	0.0033366296
9	0xbd5c3a33	-0.05376644
10	0x4043cf71	3.0595362
11	0xbf9abb74	-1.2088456
12	0x3d8c628e	0.06854735
13	0xbf1cc97a	-0.6124493
14	0xbd6ba772	-0.057532735
15	0x3f7ef012	0.9958507
16	0x3f80e403	1.0069584
17	0xbc4bb1c5	-0.01243252
18	0x3f850ca4	1.0394483
19	0x3f6f32f4	0.93437123
20	0x3f855413	1.0416282
21	0xbfde0044	-1.7343831
22	0x3f844baf	1.0335597
23	0xbe4ef36f	-0.2021005
24	0xbf07c2d8	-0.5303168
25	0xbf03df57	-0.51512665
26	0x3bd4f1c1	0.006498546
27	0x3d3baf74	0.045821622
28	0x3b419f92	0.0029544574
29	0x3ccaa457	0.024736566
30	0xbe9a52c1	-0.3014126
31	0xbd3576f3	-0.044302892
32	0x3d19d3fa	0.037555672
33	0xbc573c9c	-0.013137009
34	0xbd3c2ffd	-0.045944203
35	0xbf718480	-0.94342804
36	0x405430e8	3.315485
37	0xbf59115b	-0.8479211
38	0xbe1b6bcc	-0.1517784
39	0xbef87402	-0.48526007
40	0xbd6fc51d	-0.05853759
41	0x3f832035	1.0244204
42	0xbc2f8e80	-0.010715127
43	0x3f850d73	1.0394729
44	0x3c067cd9	0.008208477
45	0x4040d684	3.013093
46	0xbeb61c52	-0.35568482
47	0x3ff36632	1.9015563
48	0xbb1fbe94	-0.0024375068
49	0xbeeeadaf	-0.46616885
50	0x3f73b421	0.9519673
51	0xbe587d54	-0.21141559
52	0x3e598fa8	0.21246207
53	0xbd85f150	-0.06540167
54	0xbf2c3cac	-0.6728008
55	0xbed9ee6a	-0.42564708

mid_part.0.weight f4 [12, 56, 1, 1]
0	0x3b9a8d38	0.0047165416
1	0xbe144603	-0.14479832
2	0x3e782a90	0.24234986
3	0xbc4f6adb	-0.012659754
4	0xbe40179e	-0.18759009
5	0x3db11e53	0.08648362
6	0xbae39456	-0.0017362933
7	0xbd962f34	-0.07333222
8	0xbe8226bb	-0.25420174
9	0xbd99941a	-0.07498951
10	0x3e90657d	0.2820243
11	0x3e2ae211	0.166878
12	0xbcc18990	-0.023625165
13	0xbdd0fd19	-0.102045245
14	0xbf1ed47b	-0.6204297
15	0xbbf737d4	-0.007544497
16	0x3e01ba54	0.12668735
17	0xbe1f8ce4	-0.1558109
18	0xbe09065b	-0.1338133
19	0xbc895e58	-0.01676862
20	0xbc468a76	-0.012117973
21	0xbe13916f	-0.14410947
22	0x3e4ae8e0	0.19815397
23	0x3dc01c03	0.09380343
24	0x3e018037	0.12646566
25	0xbf2c8dc7	-0.67403835
26	0x3d8a8e53	0.067654274
27	0xbf9b3d52	-1.2128088
28	0xbd972e20	-0.073818445
29	0x3e9536c3	0.29143342
30	0x3d21b9a6	0.03948369
31	0x3e7d4ba2	0.24735883
32	0xbe3b11d2	-0.18268517
33	0xbeae5b97	-0.34054253
34	0x3e6ef190	0.23334336
35	0x3e935e0d	0.28782693
36	0xbd64f002	-0.05589295
37	0x3c673fb7	0.014114312
38	0xbd5e57bc	-0.05428289
39	0x3cb16849	0.021656172
40	0xbebbede0	-0.36704922
41	0xbd1370d5	-0.035996277
42	0xbefbf5c8	-0.49210954
43	0xbe8e847b	-0.2783545
44	0xbe47ea6a	-0.19523016
45	0x3df0f870	0.11766136
46	0x3dc35e8c	0.09539518
47	0xbc8d1268	-0.01722069
48	0xbdce63e1	-0.10077644
49	0xbe89631a	-0.2683342
50	0xbd906c51	-0.0705191
51	0x3eebcd52	0.46055084
52	0x3f1b215e	0.6059779
53	0xbe85e9a1	-0.26154807
54	0xbc190e66	-0.009341812
55	0x3e4ec9dd	0.20194192
56	0xbd058a79	-0.03260276
57	0xbb8009f1	-0.003907435
58	0xbf156742	-0.58360684
59	0x3ec0e0ec	0.37671602
60	0x3e2656f2	0.16244105
61	0xbc7a3602	-0.0152716655
62	0xbda46301	-0.08026696
63	0xbdccd780	-0.10002041
64	0xbe6c41c9	-0.2307197
65	0xbe4eccbf	-0.20195292
66	0x3ccd61ee	0.02507111
67	0xbd15c576	-0.036565267
68	0xbf193f9a	-0.59862673
69	0xbcde220b	-0.027115842
70	0xbc265c82	-0.0101538915
71	0x3dcda4e8	0.10041219
72	0xbecff4fb	-0.40616593
73	0x3deab90e	0.11461078
74	0x3e56271a	0.20913354
75	0xbcc31bdb	-0.023816993
76	0x3e8bfc69	0.2734101
77	0x3d86ca0d	0.06581507
78	0xbda034a2	-0.07822539
79	0xbd0be250	-0.034151375
80	0x3d5724b7	0.05252525
81	0xbdc9267f	-0.09821796
82	0x3dc7963d	0.097454526
83	0x3e32cef9	0.17461766
84	0x3bed64c1	0.007244677
85	0xbd8616c1	-0.06547309
86	0xbb39d07f	-0.0028353033
87	0x3d2f2724	0.042761937
88	0x3d97edbd	0.07418392
89	0x3f1a97ee	0.60388076
90	0xbdaa1bf1	-0.08306111
91	0xbdb21369	-0.086951084
92	0xbbb932d9	-0.0056518135
93	0xbda9ca15	-0.08290497
94	0xbe18c0a8	-0.14917243
95	0xbd362c7e	-0.044476025
96	0xbdb8e8d8	-0.090287864
97	0x3c1a0a15	0.009401818
98	0x3e8190e7	0.25305864
99	0xbf33aca4	-0.70185304
100	0x3e1651b3	0.14679603
101	0xbdb862ed	-0.090032436
102	0xbd77d3e9	-0.060504828
103	0x3e264905	0.16238792
104	0x3cdb393a	0.026760686
105	0xbd50865d	-0.05090939
106	0xb8952237	-7.111247e-05
107	0x3f0edcdb	0.5580575
108	0xbee2ecd8	-0.44321322
109	0xbe4af74c	-0.19820899
110	0x3d4ed2ef	0.05049413
111	0x3e7c0d1b	0.24614374
112	0x3c381596	0.011235615
113	0xbd7ed944	-0.06221892
114	0xbe4042e4	-0.18775517
115	0x3df00b9b	0.117209636
116	0x3e7cc0ce	0.24682924
117	0xbd6de709	-0.05808166
118	0xbe9be9de	-0.30451864
119	0xbd626527	-0.055272248
120	0x3d125bd7	0.035732117
121	0xbd541789	-0.051780257
122	0x3c5088f9	0.012727969
123	0x3e3fb87e	0.18722722
124	0x3c2531ae	0.010082645
125	0xbca885f2	-0.020571683
126	0xbda4d2f9	-0.08048052
127	0x3eea8bdf	0.45809838
128	0xbe1e9231	-0.15485455
129	0x3e7f3820	0.24923754
130	0xbe61b93e	-0.2204332
131	0x3d8ba87e	0.06819247
132	0xbe8149fd	-0.2525176
133	0x3d137e19	0.036008928
134	0x3e3b6ce9	0.18303265
135	0xbeab790f	-0.33490798
136	0x3df6e59a	0.12055512
137	0x3e5b683c	0.21426481
138	0x3e35fcec	0.17772263
139	0x3e3b2e68	0.18279421
140	0x3f2176cb	0.6307189
141	0xbd956009	-0.07293708
142	0xbd42192c	-0.047387287
143	0x3c51d57d	0.012807247
144	0x3e5c1a65	0.21494444
145	0x3ea37057	0.31921646
146	0x3de65515	0.11246697
147	0xbd957477	-0.072976045
148	0xbd5c9619	-0.05385408
149	0x3d2d1a80	0.0422616
150	0x39986dc5	0.00029073484
151	0xbd114fae	-0.03547638
152	0xbf05ff1a	-0.5234238
153	0xbdb28aa6	-0.08717851
154	0xc0079958	-2.1187344
155	0xbeebbb10	-0.46041155
156	0x3e037279	0.12836637
157	0xbdb36588	-0.087596
158	0xbd9185b6	-0.071055815
159	0x3dd1f54d	0.102518655
160	0x3daab973	0.08336153
161	0xbc8d6b0c	-0.017262958
162	0x3ea9e40c	0.33181798
163	0x3e8b90fa	0.27259046
164	0xbf062ef1	-0.52415377
165	0xbe50c179	-0.20386304
166	0x3f051024	0.51977754
167	0x3e779f18	0.24181783
168	0xbe59f7b9	-0.21285905
169	0xbe09d3df	-0.13459729
170	0xbc8c4cac	-0.017126404
171	0x3e93dd71	0.28879884
172	0xbd784302	-0.06061078
173	0xbe8e4ff1	-0.27795365
174	0x3d29b8ec	0.04143612
175	0xbe018005	-0.12646492
176	0xbf800883	-1.0002598
177	0xbe2338d4	-0.15939647
178	0x3e83fb76	0.25777787
179	0xbe411fd3	-0.18859796
180	0xbd6c437f	-0.057681557
181	0xbe0de260	-0.13855886
182	0x3f3bcc33	0.7335846
183	0x3f327031	0.6970244
184	0xbf8b600d	-1.0888687
185	0x3e78e837	0.24307333
186	0xbeecc9ad	-0.46247616
187	0x3e49d635	0.1971062
188	0x3e63a852	0.22232178
189	0xbd29864d	-0.041387845
190	0xbec44570	-0.38334227
191	0x3e932c10	0.28744555
192	0xbe1cd369	-0.15315022
193	0x3db7ad88	0.08968645
194	0x3ca0f7b6	0.019649368
195	0x3ff9feac	1.9530845
196	0xbe84fe15	-0.259751
197	0xbe5d585b	-0.21615736
198	0xbe3a61c8	-0.18201363
199	0xbdf0ba85	-0.11754326
200	0xbf0d8ec1	-0.5529595
201	0x3ec54d6c	0.3853563
202	0xbea91cff	-0.33029935
203	0xbea88100	-0.3291092
204	0xbe4b8699	-0.19875564
205	0xbf1fc284	-0.6240618
206	0xbd844dc8	-0.06460148
207	0xbe8e48e9	-0.2779
208	0xbe597e96	-0.21239695
209	0xbe4ec2b4	-0.20191461
210	0xbedaf89b	-0.42767796
211	0x3eb050f8	0.34436774
212	0xbf17108b	-0.5900962
213	0x3eab90dd	0.3350896
214	0x3dc8999f	0.09794926
215	0x3e1ef7dc	0.15524238
216	0xbe6921b7	-0.22766767
217	0xbe306907	-0.17227565
218	0xbe905352	-0.28188568
219	0xbf108408	-0.56451464
220	0x3e925665	0.2858154
221	0x3ea02eb2	0.31285626
222	0xbedf49a4	-0.4361087
223	0xbc0dcb79	-0.008654469
224	0x3c33b70d	0.010968936
225	0x3d8d07d3	0.06886258
226	0x3e9134e0	0.28360653
227	0x3e80adb7	0.25132534
228	0x3eecf2bf	0.4627895
229	0xbe3d7902	-0.18503192
230	0x3ee3d19e	0.44495863
231	0x3c8ea0b6	0.017410617
232	0x3ea3e9b3	0.32014236
233	0x3eb194e3	0.34683904
234	0xbe35d20c	-0.17755908
235	0xbfd742b0	-1.6817226
236	0xbe9df6e0	-0.30852413
237	0x3e69840d	0.2280428
238	0xbe926f82	-0.286007
239	0xbf015685	-0.50522643
240	0xbe64451b	-0.22291987
241	0x3edf2c8f	0.43588683
242	0x3e24daff	0.16099165
243	0x3d9b562b	0.075847946
244	0x3e96f6d1	0.2948518
245	0xbe460723	-0.1933866
246	0x3efab8ab	0.48969015
247	0xbebd9708	-0.3702929
248	0xbd3b6309	-0.045748744
249	0x3e06c033	0.13159256
250	0x3f27c7f9	0.6553951
251	0xbe94f485	-0.29092804
252	0xbeb1873a	-0.34673482
253	0x3e41e8ab	0.18936412
254	0x3e0c1f4a	0.13683811
255	0x3e4beab8	0.19913757

mid_part.0.bias f4 [12]
0	0x3c50329f	0.0127073815
1	0x3d4804e9	0.048832808
2	0xbdab2f9b	-0.083586894
3	0x3e828832	0.25494534
4	0x3e613b1d	0.21995206
5	0xbcd8c2d1	-0.026460083
6	0xbde03be8	-0.10948926
7	0x3d106955	0.035256702
8	0x3e387033	0.1801155
9	0x3d83aba4	0.06429222
10	0xbe94ccd2	-0.29062515
11	0xbd25cebe	-0.040480368

mid_part.1.weight f4 [12]
0	0x3f5bff6a	0.85936606
1	0xbe6570ce	-0.22406313
2	0x3fb98557	1.4493817
3	0x3e4ce5a2	0.20009473
4	0x3e9a6270	0.30153227
5	0x3e1d5212	0.15363339
6	0xbed64436	-0.41848916
7	0x3d6d5c54	0.05794938
8	0x3f7c0865	0.9845031
9	0x3f226196	0.63430154
10	0x3f8013f6	1.0006092
11	0x3f7d84f5	0.99031

mid_part.2.weight f4 [12, 12, 3, 3]
0	0xbdab4918	-0.08363551
1	0xbd8555b5	-0.06510488
2	0x3e4917af	0.19637941
3	0x3ee83d14	0.453591
4	0xbe9804d8	-0.29691195
5	0x3de20b21	0.11037279
6	0xbce24603	-0.027621275
7	0xbdc357b2	-0.09538211
8	0x3d920018	0.07128924
9	0x3e0ee6dd	0.13955255
10	0x3efd628e	0.49489254
11	0x3e6cc713	0.23122816
12	0x3ebd4466	0.36966246
13	0xbe5d0595	-0.2158416
14	0x386c35b7	5.631681e-05
15	0x3e8b4b63	0.27205953
16	0x3e8a4116	0.27002782
17	0xbde58a13	-0.11207976
18	0x3e34a67d	0.17641635
19	0xbec2b757	-0.38030502
20	0x3ddfc909	0.10927016
21	0xbe40c151	-0.18823744
22	0x3ef2c775	0.474178
23	0x3c0ea934	0.008707333
24	0x3e483966	0.19553146
25	0xbd796841	-0.06089044
26	0xbe97626a	-0.2956727
27	0x3d53b284	0.051683918
28	0xbece8b45	-0.4034063
29	0x3e66212f	0.22473596
30	0x3e385e4d	0.18004723
31	0xbbe63ddf	-0.0070264186
32	0x3e459ac9	0.19297327
33	0x3d5dc96f	0.05414718
34	0x3f020cc0	0.50800705
35	0x3f298770	0.66222286
36	0xbec97981	-0.39350513
37	0xbeb641aa	-0.35596973
38	0xbdf1c8e0	-0.11805892
39	0xbec40b90	-0.3829007
40	0x3e750637	0.23928152
41	0x3e8b7c67	0.2724335
42	0x3dac9914	0.08427635
43	0x3dbfc196	0.093630955
44	0x3e470a7b	0.19437592
45	0xbe8d4b69	-0.27596596
46	0x3f364d1c	0.7121141
47	0xbf3b6857	-0.73206085
48	0x3ea77fa6	0.32714576
49	0x3de3c771	0.11122025
50	0xbea76b48	-0.32699037
51	0x3da08741	0.07838298
52	0xbf0c4710	-0.5479593
53	0x3f0827b8	0.53185606
54	0xbebd5859	-0.36981466
55	0xbfa1a168	-1.2627382
56	0xbe8c23ed	-0.2737116
57	0xbebf12e7	-0.3731911
58	0x3da6c9f9	0.08143992
59	0x3c234e3f	0.009967386
60	0xbe101c66	-0.14073333
61	0x3db35e9f	0.08758282
62	0x3e602ce6	0.21892127
63	0xbd54d8df	-0.051964637
64	0x3d58eee7	0.05296221
65	0x3c893807	0.016750349
66	0xbea1a7ce	-0.31573337
67	0x3e83f844	0.2577535
68	0x3b32a70e	0.0027260217
69	0x3d2553b3	0.040363025
70	0xbbbedf8c	-0.0058249887
71	0x3ec8984d	0.39178696
72	0xbd96e380	-0.07367611
73	0xbea0f4cc	-0.31436765
74	0x3de51992	0.11186518
75	0x3e81cc07	0.25350973
76	0xbb73666d	-0.0037139908
77	0xbee0ff2e	-0.43944687
78	0xbc591f09	-0.013252028
79	0x3e1e802e	0.15478584
80	0xbd20f5e2	-0.039296992
81	0xbe18dc51	-0.14927794
82	0xbe645248	-0.22297013
83	0xbe669f41	-0.22521688
84	0x3c21a1a4	0.009865198
85	0xbe39a694	-0.18129951
86	0xbea356be	-0.31902117
87	0xbdfa60b3	-0.12225475
88	0xbdbec717	-0.09315317
89	0xbc3a6788	-0.011377223
90	0x3d6aec16	0.057354055
91	0x3ec4354d	0.38321915
92	0x3e29948a	0.1656057
93	0x3b840ce8	0.004029859
94	0xbeae8d85	-0.34092346
95	0x3cc19810	0.02363208
96	0x3e42e089	0.19030966
97	0xbdf99aa9	-0.12187702
98	0xbd9b9d2b	-0.07598337
99	0xbd8af347	-0.06784683
100	0xbdf0d6e6	-0.117597386
101	0x3dfdc9ae	0.12391983
102	0x3dfd7716	0.123762295
103	0x3f31189b	0.6917817
104	0xbf30f8f1	-0.69129854
105	0x3e32edbb	0.174735
106	0xbe1d2af4	-0.15348417
107	0x3dd07f50	0.10180533
108	0xbdf9d5ab	-0.12198957
109	0x3e6bc75f	0.23025273
110	0xbe51b3e4	-0.20478779
111	0xbd53ea1c	-0.051736936
112	0x3ddcb5ac	0.10776839
113	0xbd706bc9	-0.058696542
114	0xbcf81beb	-0.03028675
115	0x3dfd00be	0.12353657
116	0x3bceb3ef	0.006308071
117	0xbdee8592	-0.1164657
118	0xbda0085c	-0.078140944
119	0x3de65346	0.11246352
120	0xbe346e7b	-0.1762027
121	0x3e91d2ec	0.28481233
122	0xbe96cc46	-0.29452723
123	0x3e7d17fc	0.2471618
124	0xbe5c3385	-0.21504028
125	0x3cb41622	0.02198321
126	0x3d9a0b7d	0.075217225
127	0xbe91e62f	-0.2849593
128	0x3d01fc2a	0.031734623
129	0x3df0b5b1	0.11753405
130	0xbe7b68fe	-0.2455177
131	0x3eca3ac1	0.3949795
132	0xbdf39cab	-0.118951164
133	0x3e048127	0.12939893
134	0x3e73435c	0.23756164
135	0x3f0746af	0.5284223
136	0xbf1ac66b	-0.6045901
137	0x3d83b341	0.06430674
138	0x3e113043	0.14178567
139	0x3ec2f138	0.3807466
140	0xbeccd52b	-0.40006384
141	0xbe14aea8	-0.14519751
142	0x3eed0a2c	0.46296823
143	0xbde930e6	-0.1138628
144	0x3ea14a9f	0.31502244
145	0x3de4c313	0.1117002
146	0xbe31788f	-0.17331146
147	0x3ecc5dc8	0.399153
148	0xbec751c1	-0.3892956
149	0xbe59b454	-0.21260196
150	0xbe158df3	-0.1460493
151	0xbe8f2e39	-0.27964953
152	0xbdfc799a	-0.12327881
153	0x3e0aff8b	0.13574044
154	0xbfa2569d	-1.2682682
155	0x3d1f37b3	0.03887148
156	0x3eb36e9e	0.35045332
157	0x3f2a41c3	0.66506594
158	0xbe656507	-0.2240182
159	0xbe0407ed	-0.12893648
160	0xbe266bc8	-0.16252053
161	0xbd96cc4c	-0.07363185
162	0x3d959568	0.073038876
163	0x3e7cc680	0.24685097
164	0x3e7e73aa	0.2484881
165	0x3e59aebe	0.21258065
166	0xbf21553b	-0.63020676
167	0xbe9fdee2	-0.31224734
168	0xbda37cf7	-0.079828195
169	0xbeb1ca63	-0.3472472
170	0xbe26d6cb	-0.16292875
171	0x3deafb1e	0.11473678
172	0xbd37e2a8	-0.04489389
173	0xbd1a3ab1	-0.03765363
174	0x3ea37588	0.31925607
175	0xbd6fabbb	-0.058513384
176	0x3d115bb2	0.035487838
177	0xbdd69b91	-0.10478891
178	0xbe237640	-0.15963078
179	0xbd4601fe	-0.048341744
180	0xbdffe12d	-0.12494121
181	0xbe9c49a8	-0.30524945
182	0xbd6faa69	-0.058512125
183	0xbe1306bd	-0.14358039
184	0x3eee36d9	0.4652622
185	0xbd49f61d	-0.049306978
186	0x3c9ab989	0.018887298
187	0x3ca88d9d	0.020575339
188	0x3dfa0c17	0.12209337
189	0xbcd2d425	-0.025735924
190	0x3e0dd6cf	0.13851474
191	0x3cb37cb5	0.02191005
192	0xb96dbb45	-0.00022671845
193	0xbe44c27a	-0.19214812
194	0xbe94a144	-0.29029286
195	0xbcf724ee	-0.030168977
196	0xbe24992c	-0.16074055
197	0xbde455d6	-0.111491844
198	0xbd835b52	-0.06413902
199	0x3f1eba5c	0.6200311
200	0xbbaf7921	-0.005355016
201	0x3e30e781	0.17275812
202	0xbf121833	-0.57068175
203	0x3d93b359	0.07211942
204	0xbdf9b034	-0.12191811
205	0xbe18c734	-0.1491974
206	0x3d15b9bc	0.036554083
207	0xbdefa706	-0.11701779
208	0xbd9e304e	-0.07724057
209	0x3dbc4ff8	0.0919494
210	0x3dae84e8	0.085214436
211	0xbe03f7cb	-0.12887494
212	0xbdd1f080	-0.1025095
213	0x3e1a9151	0.15094496
214	0x3da8b8cf	0.082383744
215	0x3d163b62	0.036677726
216	0x3c88ee17	0.016715093
217	0x3dceb2a1	0.100926645
218	0xbd299ffe	-0.041412346
219	0x3e5658fb	0.20932381
220	0xbe819be2	-0.25314242
221	0xbdeb3184	-0.11484054
222	0xbe0b646a	-0.13612524
223	0xbe2594c1	-0.16170026
224	0x3c7503f9	0.01495456
225	0xbd369354	-0.044574097
226	0xbec987dc	-0.39361465
227	0xbe59e9de	-0.2128062
228	0x3dbce683	0.09223654
229	0xbd02f740	-0.031974077
230	0xbe422e9d	-0.18963094
231	0xbc607b49	-0.0137012685
232	0x3ea4f33e	0.3221683
233	0xbe3d7f7c	-0.18505663
234	0xbdbdcfec	-0.092681736
235	0x3d35f83e	0.044426195
236	0xbdb7ee42	-0.08980991
237	0xbdbfb264	-0.09360197
238	0x3f224af2	0.6339561
239	0xbd00700e	-0.031356864
240	0xbd880b5a	-0.0664279
241	0xbd0cfb79	-0.03441951
242	0x3e3f24b2	0.18666342
243	0xbe2157c6	-0.15756139
244	0xbf0a8ac3	-0.54117984
245	0x3ef7c29a	0.48390657
246	0xbf30fc04	-0.69134545
247	0x3cda6c53	0.026662981
248	0xbe525044	-0.20538431
249	0xbcd8cb56	-0.026464146
250	0xbea1a118	-0.31568217
251	0x3dabb8dd	0.08384869
252	0xbdf90214	-0.121585995
253	0xbe1bc456	-0.15211615
254	0x3efb37f8	0.49066138
255	0xbe2cda2e	-0.16880104

mid_part.2.bias f4 [12]
0	0x3d87af43	0.066252254
1	0x3dcebb4e	0.10094319
2	0x3e44dbc2	0.19224456
3	0xbe0f37bd	-0.13986106
4	0xbe510945	-0.20413692
5	0xbe01a4e2	-0.12660554
6	0x3d057dc9	0.03259066
7	0xbd9e8f7e	-0.07742213
8	0x3e002f4e	0.12518045
9	0xbe4a81f2	-0.19776133
10	0xbe1a1710	-0.1504786
11	0x3d689b66	0.056788824

mid_part.3.weight f4 [12]
0	0x3f6b353e	0.91878116
1	0x3f7f823a	0.99808085
2	0x402b7287	2.6788652
3	0x3e3f3ad9	0.18674792
4	0x3f7f1770	0.9964514
5	0xbc98e53e	-0.018663999
6	0xbede9024	-0.43469346
7	0x3f7f2181	0.996605
8	0x3f7dd414	0.9915173
9	0xbd8c9709	-0.06864745
10	0x3f89a90d	1.0754715
11	0x3f6d9d8c	0.9281852

mid_part.4.weight f4 [12, 12, 3, 3]
0	0x3e27d023	0.16387992
1	0x3f1ec6d7	0.62022156
2	0xbf6502ca	-0.8945738
3	0x3f0f03ee	0.5586537
4	0x3ea54dcb	0.32285914
5	0x3f5af64e	0.8553208
6	0x3f04668b	0.5171897
7	0x3ea8ede8	0.32994008
8	0x3eafaa3a	0.3430956
9	0x3edcb3c9	0.43105915
10	0x3f0a93c0	0.541317
11	0x3d9f0b9d	0.07765887
12	0xbf5a0c66	-0.8517517
13	0xbf4e84b2	-0.80671227
14	0x3e3af5b0	0.18257785
15	0x3fa646b1	1.2990323
16	0x3edb668c	0.42851675
17	0xbf8312fe	-1.0240171
18	0x3d9fe8cb	0.078080736
19	0x3e3618aa	0.17782846
20	0xbe29c405	-0.16578682
21	0xbe4a2b4c	-0.19743079
22	0x3ebebc1d	0.37252894
23	0x3d5b3b6f	0.053523477
24	0x3e986866	0.2976715
25	0xbe3a2ccf	-0.18181156
26	0x3e8e4c01	0.2779236
27	0xbf3dd2dd	-0.74149877
28	0x3f34d9ea	0.7064501
29	0xbec1227a	-0.37721616
30	0xbf8fbc9f	-1.1229438
31	0xbefce743	-0.4939519
32	0xbe77d1d8	-0.24201143
33	0x3ebbfd30	0.36716604
34	0xbf5a75eb	-0.8533618
35	0x3f605adf	0.8763866
36	0xbe532aa1	-0.2062173
37	0xbece8f37	-0.4034364
38	0xbe8f8eed	-0.2803873
39	0xbf15d5a1	-0.58529097
40	0x3d2f3afd	0.042780865
41	0xbda8475f	-0.08216738
42	0x3efc887c	0.4932288
43	0xbf149e74	-0.5805428
44	0x3e39b208	0.1813432
45	0xbdd165e8	-0.10224515
46	0xbded5768	-0.11588937
47	0x3d699a04	0.057031646
48	0x3f2447ec	0.64172244
49	0xbdc48633	-0.09595909
50	0x3e7d42fb	0.24732582
51	0xbf1e37b6	-0.6180376
52	0x3d4b6259	0.04965434
53	0xbbb13c6f	-0.0054088156
54	0xbeaed622	-0.34147745
55	0xbe31cf44	-0.17364222
56	0xbea3b521	-0.31974128
57	0xbeaf18d2	-0.34198624
58	0xbec26519	-0.37967756
59	0xbe947aa2	-0.2899981
60	0xbe78c20b	-0.24292772
61	0x3e04f2c9	0.1298324
62	0x3cb82f98	0.022483632
63	0xbf2eb619	-0.6824661
64	0xbe1dde5c	-0.15416855
65	0xbcfd27e5	-0.030902812
66	0xbe1c3922	-0.1525617
67	0xbf2198ee	-0.6312398
68	0xbf09fd9a	-0.5390259
69	0xbe5a5a61	-0.2132354
70	0xbe51ef1e	-0.20501372
71	0xbe451f44	-0.19250208
72	0x3e480b95	0.19535668
73	0xbf078f0b	-0.5295264
74	0x3f8b01b4	1.0859895
75	0x3fa21a4f	1.2664279
76	0x3e1c5620	0.15267229
77	0x3f76f001	0.96459967
78	0xbf02b344	-0.5105479
79	0x3f95d49e	1.1705511
80	0x3dc899e0	0.09794974
81	0xbf5da226	-0.86575544
82	0xbf308dc6	-0.6896633
83	0xbf3a4992	-0.7276851
84	0xbe594a7c	-0.2121982
85	0xbf70e05f	-0.94092363
86	0xbf2fc6dc	-0.6866281
87	0xbec5cc72	-0.38632542
88	0xbed5fa4f	-0.41792533
89	0xbec42716	-0.3831107
90	0xbda10c53	-0.07863679
91	0x3f908cdd	1.1292988
92	0xbf1ece01	-0.62033087
93	0xbf143c0d	-0.5790413
94	0xbf5f8ef9	-0.87327534
95	0x3f870f84	1.055161
96	0x3eef5646	0.4674551
97	0x3e90b8bf	0.2826595
98	0xbd1591b3	-0.036515903
99	0x3f80a23b	1.0049509
100	0xbfe5d9dc	-1.795711
101	0x3eb74aab	0.35799155
102	0xbe4a4362	-0.19752267
103	0x3f3433c2	0.70391476
104	0x3f307a91	0.6893702
105	0xbeedaed4	-0.46422446
106	0xbe97d0b1	-0.29651406
107	0xbf674da1	-0.9035283
108	0xbe7f73d2	-0.24946526
109	0xbe533525	-0.20625742
110	0x3d9fa9e4	0.07796076
111	0xbe768a9a	-0.2407631
112	0x3f388ab3	0.7208664
113	0x3f101064	0.5627501
114	0x3e1c8190	0.15283799
115	0xbec1456e	-0.37748283
116	0xbeeaba52	-0.45845276
117	0xbe2aa27b	-0.16663544
118	0x3e0ad47e	0.13557622
119	0x3e787caa	0.24266306
120	0xbd38dbd5	-0.045131523
121	0xbe17ca33	-0.14823227
122	0x3bc1c084	0.005912842
123	0x3d1f3f7c	0.038878903
124	0xbd6b5ec4	-0.057463422
125	0x3e88f3eb	0.26748595
126	0xbe54e284	-0.20789534
127	0xbd43f738	-0.047843188
128	0x3d456dcf	0.048200425
129	0xbe132690	-0.14370179
130	0x3ee13e90	0.43993044
131	0x3e68bb48	0.22727692
132	0x3c89c9c3	0.01681984
133	0x3e603b1e	0.21897551
134	0xbde5dbe9	-0.11223585
135	0xbd83efe3	-0.06442239
136	0x3ea42f9e	0.3206758
137	0x3e855118	0.26038432
138	0xbdf3eb04	-0.1191006
139	0x3ea3d923	0.320016
140	0x39c882bd	0.0003824438
141	0x3dae7501	0.085184105
142	0xbf11ee2a	-0.57004035
143	0xbe3ca040	-0.18420506
144	0x3e5fc165	0.21851118
145	0xbe0c2e66	-0.13689575
146	0xbdc5b35e	-0.09653352
147	0xbddffb69	-0.109366246
148	0x3e297a7d	0.16550632
149	0x3e46852f	0.19386743
150	0x3e6a1716	0.22860369
151	0x3ea53c1f	0.3227243
152	0xbe4a6925	-0.19766672
153	0x3dc2bf0f	0.09509098
154	0xbe887084	-0.26648343
155	0xbea327fd	-0.31866446
156	0xbecb4b37	-0.39705822
157	0x3f653f96	0.8955015
158	0x3e11c881	0.14236642
159	0xbd01d613	-0.031698298
160	0xbe7cc402	-0.24684146
161	0xbd9c39fe	-0.07628249
162	0xbeada4e1	-0.33914855
163	0xbf26021b	-0.6484696
164	0xbec466f8	-0.3835981
165	0x3e004f4d	0.12530251
166	0xbf9cec72	-1.2259657
167	0xbee61534	-0.44938052
168	0x3d4e878b	0.050422233
169	0xbdab6d70	-0.08370483
170	0xbb44f504	-0.0030053267
171	0xbe356c3a	-0.17717066
172	0x3d1e7d64	0.0386938
173	0xbdb5650a	-0.08857162
174	0xbe41f4fc	-0.1894111
175	0xbeb8ffc3	-0.3613263
176	0xbf1397c9	-0.5765348
177	0x3c63c990	0.013903037
178	0x3eb5340e	0.35391277
179	0x3e9fb88d	0.3119549
180	0x3f000773	0.50011367
181	0xbebef293	-0.37294444
182	0xbde3babd	-0.11119602
183	0x3e655070	0.22393966
184	0x3e7d5e48	0.24742997
185	0x3ecbe2c9	0.3982146
186	0x3dec5f7c	0.1154165
187	0x3ec3c687	0.38237402
188	0xbdd18bda	-0.10231753
189	0xbbcff1b1	-0.0063459505
190	0xbe15d9d9	-0.14633884
191	0xbe15cce6	-0.14628944
192	0xbdef54cf	-0.11686098
193	0xbf2546f0	-0.6456137
194	0xbdaa3144	-0.08310178
195	0xbd9ca540	-0.076487064
196	0x3d85c4e7	0.06531697
197	0x3e2c5365	0.16828687
198	0xbec18464	-0.3779632
199	0xbdd018df	-0.10160994
200	0xbe0ff59d	-0.14058538
201	0xbf154ea8	-0.58323145
202	0xbece3daa	-0.4028142
203	0x3ea78a4b	0.32722697
204	0x3f0caf46	0.54954946
205	0x3d6032fd	0.054736126
206	0x3c90cb29	0.017675
207	0xbe05a9d5	-0.13053067
208	0x3cd6dd95	0.026228705
209	0xbdeb9c4e	-0.11504422
210	0xbe91901a	-0.28430253
211	0xbccdd525	-0.02512605
212	0xbf02d642	-0.5110818
213	0x3cd2695f	0.02568501
214	0xbe36ca63	-0.17850642
215	0x3d504314	0.05084522
216	0xbd376379	-0.0447726
217	0x3eb56fca	0.3543685
218	0xbdc0e33c	-0.094183415
219	0x3e574a17	0.21024357
220	0xbef61059	-0.48059347
221	0x3ce4df5f	0.027938543
222	0x3dc9d258	0.09854573
223	0xbe836e71	-0.25670198
224	0x3dbe1916	0.092821285
225	0x3d238e3f	0.03993058
226	0xbde440df	-0.11145186
227	0xbd2dfab5	-0.04247542
228	0x3e258a98	0.1616615
229	0xbeb431e2	-0.35194308
230	0x3dc428d4	0.095781
231	0xbe0d00c2	-0.1376982
232	0xbec3bf4c	-0.38231885
233	0x3e47b614	0.19503051
234	0x3d4d1a8e	0.050074153
235	0x3dc38255	0.09546343
236	0x3cf7c048	0.030243054
237	0x3e2399c6	0.15976629
238	0x3ec64909	0.38727596
239	0x3df017e6	0.11723308
240	0x3dbbc3d4	0.091682106
241	0xbcc1e4da	-0.023668695
242	0x3d45021a	0.048097707
243	0x3e8773f6	0.2645566
244	0x3dde3d0b	0.10851487
245	0xbdfebfa1	-0.12438894
246	0x3e81048c	0.25198781
247	0xbea87858	-0.32904315
248	0xbe828d04	-0.2549821
249	0x3de1d796	0.11027448
250	0xbcdab0f8	-0.026695713
251	0x3e3a46c9	0.18191065
252	0x3ea642fe	0.32472986
253	0xbeaa6b70	-0.33285093
254	0x3e027b22	0.12742284
255	0xbef5a216	-0.47975224

mid_part.4.bias f4 [12]
0	0xbee3adbf	-0.44468495
1	0xbf02eaa2	-0.5113927
2	0x3dabd5e3	0.08390405
3	0xbdebf114	-0.115205914
4	0x3d82f885	0.063950576
5	0x3df2953f	0.11844873
6	0xbe974410	-0.29544115
7	0x3dfb5e2b	0.122738205
8	0x3d1e8b9c	0.03870736
9	0xbd6ae6fc	-0.05734919
10	0x3dedfce4	0.11620501
11	0x3d9d2671	0.07673348

mid_part.5.weight f4 [12]
0	0x3bf15ca1	0.0073657786
1	0x3e14fd7c	0.14549822
2	0xbdb8a758	-0.09016293
3	0xbd800b22	-0.062521234
4	0x3e772e9e	0.24138877
5	0x3e5f00e0	0.21777678
6	0x3e9720ec	0.29517305
7	0xbed7b5a3	-0.42130765
8	0x3f801fd7	1.0009717
9	0x3f7e33c5	0.99297744
10	0x40214f4f	2.5204656
11	0x3ed1fddf	0.41014

mid_part.6.weight f4 [12, 12, 3, 3]
0	0x3eb38457	0.35061905
1	0xbf13aeea	-0.5768877
2	0xbf986a9d	-1.1907536
3	0x3f2b7a3b	0.66983384
4	0x3e9764ec	0.29569185
5	0xbe2aa308	-0.16663754
6	0x3eb53e80	0.35399246
7	0xbe8eeac4	-0.27913487
8	0xbf6940c5	-0.91114455
9	0x3e3095a4	0.17244583
10	0xbe2f5687	-0.17122851
11	0x3efc4b8a	0.49276382
12	0xbe0723f6	-0.13197312
13	0xbe959f43	-0.2922307
14	0xbf059f3d	-0.52196103
15	0x3e9deddf	0.30845544
16	0xbe0755da	-0.13216344
17	0xbc9bc763	-0.019015973
18	0x3d6c9257	0.057756748
19	0xbea88369	-0.32912758
20	0xbec5f4ae	-0.38663238
21	0xbe10fa34	-0.14157945
22	0xbecd5323	-0.4010249
23	0x3d5c8f2e	0.053847484
24	0xbe017d63	-0.12645487
25	0xbe58663c	-0.2113275
26	0xbe10ca71	-0.14139725
27	0x3e310622	0.17287496
28	0xbe84c1cd	-0.25929108
29	0xbe7cb3ae	-0.24677917
30	0xbe3fa9b3	-0.18717079
31	0xbe565006	-0.20928964
32	0xbd3d500b	-0.046218913
33	0xbd7f6f3b	-0.062361937
34	0x3d5de1da	0.054170467
35	0x3dcc154a	0.09964998
36	0x3ef4dc71	0.47824433
37	0x3d5774f3	0.052601766
38	0x3c727f82	0.014800908
39	0xbf2ab52b	-0.6668269
40	0x3e56f9c2	0.20993713
41	0x3c2b37a7	0.01045028
42	0xbf08df1c	-0.5346544
43	0x3da5cf8c	0.08096227
44	0x3de542ad	0.11194358
45	0x3e54e777	0.20791422
46	0x3e8d2cb7	0.27573177
47	0xbe1a67e0	-0.15078688
48	0xbda096d1	-0.07841266
49	0x3f01214d	0.5044144
50	0x3ebbef8a	0.3670619
51	0x3d0f3235	0.03495999
52	0x3ebe0517	0.37113258
53	0x3ee5192a	0.4474576
54	0x3d8e413a	0.06946035
55	0xbf16eabc	-0.58951926
56	0xbe6859b0	-0.22690463
57	0x3ead15e5	0.33805767
58	0x3cb99587	0.022654308
59	0xbe6c768a	-0.23092094
60	0x3dfcc5b2	0.12342395
61	0x3ed66490	0.41873598
62	0x3d49de67	0.049284365
63	0xbe33c59a	-0.17555848
64	0x3e79d85b	0.2439894
65	0xbd9869d9	-0.07442064
66	0xbdde2e14	-0.108486325
67	0xbe71ca1c	-0.23612255
68	0x3e2703a0	0.16309977
69	0x3de448a2	0.11146666
70	0x3d8a77b5	0.067611136
71	0xbd682888	-0.05667928
72	0x3dd612fc	0.1045284
73	0xbedfb0c8	-0.4368956
74	0x3d06ddb7	0.032926288
75	0xbdb97071	-0.090546496
76	0x3e86cdd4	0.2632891
77	0x3d4374b2	0.04771871
78	0xbe1f2c23	-0.1554418
79	0x3e550095	0.20801003
80	0x3e2b47e0	0.16726637
81	0x3c59fcb8	0.013304882
82	0xbde35fdf	-0.1110227
83	0x3d7c7fc6	0.06164529
84	0xbf43183f	-0.7620887
85	0x3eba99e3	0.3644553
86	0x3d4cd9aa	0.050012268
87	0x3d96b540	0.073587894
88	0x3dfe3194	0.124118
89	0xbdfd7b37	-0.12377017
90	0xbda502d0	-0.08057177
91	0xbe05144d	-0.12996025
92	0xbdb5c936	-0.088762686
93	0x3dc4c869	0.09608538
94	0xbed66c5f	-0.41879556
95	0x3e25a4c5	0.16176136
96	0x3e48a991	0.19595934
97	0xba0ec815	-0.00054466847
98	0x3d21bfc9	0.03948954
99	0x3d8ef676	0.069806024
100	0xbefa0b66	-0.4883682
101	0xbe1d7869	-0.15377964
102	0x3d24df48	0.040252
103	0xbe4949d0	-0.19657063
104	0x3e95923d	0.29213133
105	0x3e0dd061	0.13849021
106	0xbe075898	-0.1321739
107	0x3e596fd4	0.21234065
108	0x3eba4191	0.36378148
109	0xbee4b6a5	-0.44670597
110	0x3ec95185	0.39320007
111	0xbce5329c	-0.027978234
112	0xbda32e4b	-0.07967814
113	0x3e5b3e5b	0.21410505
114	0x3eb3c9c9	0.35114887
115	0x3eed328d	0.4632763
116	0x3efab4e8	0.48966146
117	0x3e298edc	0.16558403
118	0xbaa0332a	-0.0012222279
119	0x3e9bb1b6	0.3040902
120	0x3ea11a65	0.3146545
121	0x3ec8cb7a	0.3921774
122	0x3e3a3b5c	0.18186706
123	0x3c6f6e9a	0.014613772
124	0x3f0169b7	0.50551933
125	0x3dbca005	0.09210209
126	0x3b7e4597	0.0038798803
127	0x3d9b4e19	0.07583255
128	0x3c93ba53	0.018033182
129	0xbe244615	-0.16042359
130	0x3f324412	0.6963512
131	0x3e13a3ab	0.14417903
132	0xbc3142e0	-0.010819167
133	0x3e0ec5ef	0.13942693
134	0xbe472c41	-0.19450475
135	0xbde04b9b	-0.109519206
136	0x3b9d7ec4	0.0048063714
137	0xbb4a45fd	-0.003086447
138	0xbe1674aa	-0.14692941
139	0x3e86a75a	0.26299554
140	0xbdaba99c	-0.0838196
141	0x3e01ed81	0.12688257
142	0xbd1522af	-0.03641003
143	0xbd5cef41	-0.053939108
144	0xbe7c95c2	-0.24666503
145	0xbc9cc17c	-0.01913523
146	0x3e2722b5	0.16321833
147	0xbe52eda1	-0.2059846
148	0x3ebba51b	0.36649403
149	0xbd85b9fc	-0.06529614
150	0x3e3aca70	0.18241286
151	0x3db589e6	0.08864193
152	0xbe81146a	-0.25210887
153	0x3cf5e93c	0.030018441
154	0x3c8901ee	0.016724553
155	0xbdc18a13	-0.09450164
156	0xbd613b93	-0.054988455
157	0x3cbb32f0	0.022851437
158	0x3e58fcde	0.21190211
159	0x3d781f66	0.06057682
160	0xba4b029d	-0.0007744225
161	0x3d9e2f4b	0.07723864
162	0xbe19bb71	-0.1501291
163	0xbe85cac9	-0.26131275
164	0x3e03c02b	0.12866275
165	0xbe26c789	-0.16287054
166	0xbf3db8ea	-0.7411028
167	0xbef42a32	-0.47688442
168	0x3e889934	0.26679385
169	0x3e0160d5	0.12634595
170	0xbd73601d	-0.059417833
171	0x3c6a489d	0.014299539
172	0x3e4274a3	0.18989806
173	0xbda91d45	-0.08257536
174	0x3c59dd6c	0.01329742
175	0xbf1a7388	-0.60332537
176	0xbcf58abe	-0.029973384
177	0xbaab4284	-0.0013066088
178	0x3c8d3d1f	0.017241059
179	0x3d3aab1c	0.04557334
180	0xbd817ad7	-0.06322258
181	0x3e2d5deb	0.16930358
182	0x3d4da53d	0.05020641
183	0x3e144100	0.1447792
184	0x3d05abf2	0.032634683
185	0xbe916077	-0.2839391
186	0xbd3c0e3e	-0.04591202
187	0xbe787f6c	-0.24267358
188	0xbac336fe	-0.0014893708
189	0xbd9587ff	-0.0730133
190	0xbda94eb4	-0.082669646
191	0x3d6aee22	0.057356007
192	0x3e26895d	0.16263337
193	0xbf50a662	-0.8150388
194	0x3c73d92d	0.014883322
195	0x3df8c172	0.12146272
196	0xbb15e7fd	-0.0022873871
197	0x3d395557	0.045247402
198	0x3c04fe1a	0.008117223
199	0x3e545a24	0.20737511
200	0xbbce77a6	-0.0063008843
201	0x3b75e983	0.0037523217
202	0xbe031d57	-0.12804161
203	0xbccc35e2	-0.024928037
204	0x3d2c64b2	0.042088218
205	0xbd2256bb	-0.039633494
206	0xbdeac9f2	-0.11464299
207	0xbdc3dc3c	-0.09563491
208	0x3be2f806	0.0069265394
209	0x3da6eb0f	0.081503026
210	0xbd4769b2	-0.048684783
211	0x3e3078cc	0.1723358
212	0x3de10bb6	0.10988562
213	0x3d973c03	0.07384493
214	0xbe43d634	-0.19124681
215	0xbd9a21b8	-0.075259626
216	0xbf35ffa1	-0.71093184
217	0xbd54c6d5	-0.051947434
218	0xbe37fc41	-0.17967321
219	0x3e04ffc5	0.12988193
220	0xbefb0867	-0.49029848
221	0xbe36b6ad	-0.17843123
222	0xbebb4955	-0.36579385
223	0x3d0b3cae	0.033993416
224	0xbddd6534	-0.108103186
225	0x3eadffe6	0.33984298
226	0xbe29f4fe	-0.16597363
227	0x3acdc587	0.0015699127
228	0x3d0ab05a	0.03385959
229	0xbf807d13	-1.003817
230	0x3e84be9f	0.25926682
231	0x3e271265	0.1631561
232	0xbdc25312	-0.09488501
233	0x3dc55f46	0.096373126
234	0x3db2d3ce	0.08731805
235	0xbe5d6914	-0.21622115
236	0x3d6de12b	0.058076065
237	0xbd7cd039	-0.061722014
238	0x3db0564e	0.08610211
239	0x3e82279e	0.2542085
240	0x3d706274	0.058687642
241	0x3e9d9895	0.30780473
242	0xbd7270e9	-0.05918971
243	0x3a0067ac	0.0004898261
244	0xbe20dba9	-0.15708794
245	0x3d5df08f	0.054184493
246	0xbe3e2806	-0.18569955
247	0x3e8ec735	0.27886358
248	0xbd2c4228	-0.04205528
249	0xbcc0bb2a	-0.023526747
250	0xbb99ff68	-0.0046996363
251	0xbd80dbce	-0.062919244
252	0x3de7294b	0.11287173
253	0xbcbfe9d0	-0.02342692
254	0xbd9efbca	-0.07762869
255	0xbea30c4b	-0.31845316

mid_part.6.bias f4 [12]
0	0xbe222b2b	-0.1583678
1	0x3d8ff5f9	0.070293374
2	0xbd004ed1	-0.031325165
3	0xbf17d496	-0.59308755
4	0x3e1fc7b5	0.15603526
5	0x3f1292eb	0.5725543
6	0x3eb72dbc	0.3577708
7	0x3e1794dc	0.14802879
8	0x3f018713	0.5059673
9	0x3e2dc6cd	0.16970368
10	0x3d862f83	0.06552031
11	0x3e0aae30	0.1354301

mid_part.7.weight f4 [12]
0	0x3e4048b8	0.1877774
1	0x3f7d82e0	0.99027824
2	0x3f81b2bc	1.013267
3	0xbb62bc40	-0.003459707
4	0x3f7e1768	0.99254465
5	0x3f73f6fe	0.95298755
6	0x3d9d315f	0.076754324
7	0xbe1fcfde	-0.15606639
8	0x3f5e3690	0.86802006
9	0x3c993e97	0.018706603
10	0x3f80dc0c	1.0067153
11	0x3f7e9c3c	0.99457145

mid_part.8.weight f4 [12, 12, 3, 3]
0	0xbd06b31c	-0.032885656
1	0xbbc25199	-0.0059301374
2	0x3e0ce4ec	0.13759202
3	0x3d80fef9	0.06298632
4	0x3d3895ec	0.04506485
5	0xbb6181f5	-0.0034409736
6	0x3d66d7c3	0.05635811
7	0x3dc85dc6	0.09783511
8	0xbb1ccc37	-0.0023925432
9	0xbabc9fb3	-0.0014390856
10	0xbe465054	-0.1936658
11	0x3c3afd8f	0.011412992
12	0xba863d89	-0.0010241728
13	0xbd86bcc7	-0.06578975
14	0xbdb5a72e	-0.088697776
15	0x3da63dda	0.08117266
16	0x3e0a6243	0.13514046
17	0x3cafd9d0	0.021466166
18	0xbe2659bb	-0.16245167
19	0xbe3f9b8a	-0.18711677
20	0xbc8422f0	-0.01612994
21	0xbdae9dae	-0.08526169
22	0xbce44059	-0.027862715
23	0xbe22bb40	-0.15891743
24	0xbdbbe9b2	-0.09175433
25	0xbe681897	-0.2266563
26	0x3bac114b	0.005251085
27	0xbe1e50e3	-0.15460543
28	0xbe00bc75	-0.1257189
29	0xbe22ccf2	-0.15898493
30	0x3dc5b532	0.09653701
31	0xbf13260e	-0.5747994
32	0xbd831016	-0.063995525
33	0xbe24661e	-0.1605458
34	0x3e279183	0.16364102
35	0xbeb005e0	-0.34379482
36	0x3d96ab63	0.07356908
37	0xbf06c797	-0.526483
38	0xbd316c82	-0.04331637
39	0xbdcadb50	-0.09905112
40	0xbe72a9a5	-0.23697527
41	0xbe154027	-0.14575253
42	0x3a8a4dcb	0.0010551749
43	0xbd49d205	-0.049272556
44	0xbde28fc6	-0.11062579
45	0xbcf306b2	-0.029666279
46	0xbe6c6534	-0.23085481
47	0xbc064d7a	-0.008197183
48	0x3df150a3	0.11782958
49	0xbeb2601b	-0.34838948
50	0x3bedf487	0.007261816
51	0x3d2ccc1d	0.042186845
52	0xbd5b2777	-0.053504433
53	0x3d358093	0.04431207
54	0x3d990b3a	0.074728444
55	0x3de0d21d	0.10977576
56	0x3e2f7e3f	0.17138003
57	0x3cbecb13	0.023290193
58	0x3f22e643	0.636326
59	0x3f06d83e	0.5267371
60	0xbdecceff	-0.11562919
61	0xbea260bc	-0.31714427
62	0x3f1fdff1	0.6245108
63	0x3d084aba	0.03327439
64	0xbe39fd7b	-0.18163101
65	0xbd3b7174	-0.045762494
66	0x3d98ad80	0.074549675
67	0x3cd5fb5d	0.026120836
68	0xbe09954e	-0.13435861
69	0xbe2bb559	-0.16768397
70	0xbe4d16e6	-0.20028266
71	0x3d9821e2	0.07428338
72	0x3de1c97d	0.11024759
73	0xbeaa9b4e	-0.33321613
74	0x3d5f4b16	0.054514967
75	0xbb99073d	-0.0046700523
76	0x3e18899e	0.14896247
77	0xbdebfb01	-0.115224846
78	0xbb9b62ee	-0.004742018
79	0xbe03cb28	-0.12870467
80	0x3b5e5997	0.0033927911
81	0x3dc01ebf	0.09380864
82	0x3e8a5433	0.27017364
83	0xbc49177b	-0.012273665
84	0xbb30e7f3	-0.0026993721
85	0x3e779132	0.24176481
86	0xbd3bc6e4	-0.045843974
87	0xbd8646e9	-0.06556494
88	0xbe654154	-0.22388202
89	0x3d3fd099	0.046829794
90	0xbe1f9406	-0.1558381
91	0xbd8d7fd4	-0.06909147
92	0xbc9b9c56	-0.018995445
93	0x3e38eda0	0.18059397
94	0x3e2e8f03	0.17046742
95	0x3e287dd2	0.16454247
96	0xbe270ef1	-0.16314293
97	0xbe243120	-0.16034365
98	0xbd8dcb30	-0.069235206
99	0xbe760e60	-0.24028921
100	0xbf06e91f	-0.52699465
101	0xbd6ad019	-0.057327364
102	0x3b9f0762	0.004853175
103	0xbe222292	-0.158335
104	0xbe876e45	-0.26451316
105	0x3d78f282	0.06077815
106	0x3e217bd7	0.15769897
107	0x3ab2f018	0.0013651876
108	0x3cc8e4b6	0.02452312
109	0xbd3bb527	-0.045827057
110	0xbdad8f27	-0.0847457
111	0xbd32761f	-0.04356968
112	0x3e722c0d	0.23649617
113	0xbcef0701	-0.029178144
114	0x3d40668d	0.0469728
115	0x3ca88251	0.020569952
116	0x3d872092	0.06598009
117	0x3b37e56a	0.0028060325
118	0x3be1724d	0.006880081
119	0xbc97cd7b	-0.018530598
120	0xbd521964	-0.051293746
121	0x3b0b6679	0.0021270795
122	0x3c4dbd79	0.012557381
123	0xbdc24588	-0.09485918
124	0x3cb35c8c	0.021894716
125	0xbc9226f2	-0.017840836
126	0xbe371966	-0.17880782
127	0x3dea0f3f	0.11428689
128	0x3d326e41	0.043562178
129	0x3dc794f7	0.0974521
130	0xbec6f72b	-0.3886045
131	0x3c34894d	0.011019063
132	0xbd2e721d	-0.042589296
133	0xbd93ec35	-0.07222787
134	0x3c379ce8	0.011206843
135	0x3e7e2e84	0.24822432
136	0xbf6cac5b	-0.92450494
137	0x3f263fd3	0.6494114
138	0xbd075078	-0.033035725
139	0x3f58b536	0.84651506
140	0xbb32c5a4	-0.0027278448
141	0x3f1ae80a	0.60510314
142	0xbeb969d0	-0.3621354
143	0x3e98389d	0.29730693
144	0x3d861486	0.06546883
145	0x3d0478b5	0.032341678
146	0x3b13ea99	0.002257025
147	0xbed8d6c2	-0.42351347
148	0x3e5d56d5	0.21615155
149	0x3d14255c	0.03616844
150	0x3d5099b4	0.050927833
151	0xbd9a0bec	-0.07521805
152	0x3dab65de	0.08369039
153	0xbd48f533	-0.049061965
154	0x3ce1daaf	0.027570097
155	0xbd938f20	-0.07205033
156	0x3e1dd5f2	0.15413645
157	0xbdbeb9e5	-0.093128
158	0x3e090774	0.1338175
159	0xbd63526c	-0.055498526
160	0xbd537e59	-0.051634166
161	0xbcae381c	-0.02126699
162	0x3d1084d9	0.035282943
163	0xbb81915d	-0.003954096
164	0x3d2102a0	0.039309144
165	0xbdace24f	-0.084416024
166	0xbdc89084	-0.09793189
167	0x3dad7ebb	0.084714375
168	0x3d9499a4	0.07255867
169	0xbeadca78	-0.33943534
170	0x3fb37d09	1.4022533
171	0xbd5f5617	-0.05452546
172	0xbc1fd2de	-0.0097548645
173	0x3d9453ba	0.07242532
174	0xbbcd6bdf	-0.0062689628
175	0x3d85daa8	0.06535846
176	0x3cea184e	0.028576043
177	0xbdc8671a	-0.0978529
178	0xbe3f9251	-0.18708159
179	0xbd4d7a6a	-0.05016557
180	0x3cdcd258	0.026955768
181	0x3a16e0d0	0.00057555456
182	0xbd00b150	-0.0314191
183	0xbd8de174	-0.069277674
184	0x3f014a32	0.5050384
185	0x3e314afc	0.1731376
186	0xbd6d14ce	-0.05788117
187	0xbb0f0fb2	-0.0021829423
188	0x3e0d8b1d	0.13822599
189	0x3e45fc5b	0.19334547
190	0xbe6f6575	-0.23378547
191	0xbe280bb5	-0.16410716
192	0xbe209b18	-0.15684164
193	0x3ed355c1	0.41276363
194	0x3e81cb46	0.25350398
195	0xbe032d5e	-0.12810275
196	0xbd9d4457	-0.076790504
197	0x3dd33264	0.103123456
198	0xbe1fd633	-0.15609054
199	0x3d3f38bd	0.04668497
200	0x3d7a5a63	0.061121356
201	0x3ef292fe	0.4737777
202	0xbda86565	-0.082224645
203	0xbde5f8dc	-0.11229107
204	0xbd9b29ef	-0.075763576
205	0xbe9f93dc	-0.31167495
206	0x3dd3c0b8	0.103394926
207	0xbe5bd7cf	-0.21469043
208	0x3e246947	0.16055785
209	0x3ca3dd04	0.02000285
210	0x3d0a65f3	0.033788633
211	0xbcff477d	-0.031162018
212	0x3d05f77b	0.03270672
213	0x3e3b39a5	0.18283708
214	0x3e96839f	0.29397294
215	0xbdd712ad	-0.10501609
216	0xbd3b79aa	-0.045770325
217	0xbc2e8b78	-0.010653369
218	0x3bd1991d	0.0063964264
219	0x3c167773	0.009183752
220	0x3d818c43	0.06325581
221	0xbe6074e1	-0.21919586
222	0x3df69497	0.1204006
223	0x3e8820ca	0.26587516
224	0xbaa3b660	-0.0012490265
225	0x3e1e4cdd	0.15459009
226	0x3d84c76f	0.064833514
227	0x3dcc5868	0.099778
228	0x3e041a50	0.12900662
229	0x3dd9b1b3	0.106295966
230	0xbdb6f893	-0.089341305
231	0x3b1ba152	0.0023747277
232	0x3d6d251b	0.057896715
233	0x3b129c28	0.0022370908
234	0xbca64fee	-0.020301785
235	0xbdd8e5a6	-0.10590677
236	0xbc6a1037	-0.0142860925
237	0xbb80d679	-0.003931817
238	0x3da2e73b	0.0795426
239	0x3dd0a2cd	0.10187302
240	0xbd7a57d8	-0.06111893
241	0xbe8f6b7d	-0.28011695
242	0xbda191f0	-0.078891635
243	0x3eabbf3d	0.3354434
244	0xbf84702f	-1.0346736
245	0x3eac0b3e	0.33602327
246	0xbf4b18a9	-0.79334503
247	0x3fcfaad7	1.6224011
248	0xbf4e9bc6	-0.8070644
249	0x3f4ce1ec	0.8003223
250	0xbec565fd	-0.38554373
251	0xbcaad11e	-0.020851668
252	0x3e8dde6a	0.2770875
253	0x3edd943c	0.43277156
254	0x3c014a0b	0.007891188
255	0x3da5d472	0.08097161

mid_part.8.bias f4 [12]
0	0xbe347d52	-0.17625931
1	0xbd9832c9	-0.074315615
2	0x3d08f6a2	0.033438332
3	0x3e914167	0.2837021
4	0x3f7a35ca	0.97738326
5	0x3db24ee1	0.08706451
6	0x3ea0d34d	0.3141121
7	0xbddb9add	-0.10722897
8	0x3eb5f207	0.35536215
9	0x3d0de023	0.03463758
10	0xbedba5fd	-0.42900077
11	0xbdc6dfea	-0.09710677

mid_part.9.weight f4 [12]
0	0x3eb3a56f	0.35087153
1	0x3f7d57e0	0.9896221
2	0x3ed00dc2	0.40635496
3	0x3e8ffbb5	0.28121725
4	0x3e23d25d	0.15998216
5	0x3f7f8fab	0.99828595
6	0x3ece0697	0.40239403
7	0x3f6a38b9	0.914928
8	0x3ea339ab	0.31879935
9	0x3ef6f8c6	0.48236674
10	0x3f275d9b	0.65377206
11	0x3f426057	0.7592825
