weights/fsrcnn_x3.pth (torch_old, 54998 bytes, 22 tensors)

first_part.0.weight f4 [56, 1, 5, 5]
00000000: 9818 f0bb f042 a83b 83a0 453d 34d9 0ebd
00000010: 0ae0 74bc 212e f13c 6f7e e7bc cd69 18be
00000020: b8e0 863d 8061 193d b88b 98bd 12c2 673e
00000030: 862b 133f 214a 6dbd 15e4 bbbc 08ef 8e3d
00000040: b7f3 e9bd 1fa8 1dbf 5e3b 4e3d d6ef 28bb
00000050: 770b 06bd 6f80 9bbd 6074 283e 6ca9 38bd
00000060: f485 763b e3e6 6039 a04b 173d e2aa fdbc
00000070: e234 4fbc bb4e a4bc 9f1f 0dbc b8b7 44bd
00000080: e4f3 983d 4129 95bb e7ef 1bbc 2662 63bc
00000090: a3eb 8c3d 349a 213e b91a 883b 08b9 7b3d
000000a0: 52c7 3e3c e0a3 2b3d 40bb 323e 37fe 223c
000000b0: 60ae 82bc 7713 18bd 18a0 33bd a743 453c
000000c0: f869 3dbd 44c2 c53c aa25 c13b 638f 2d3c
000000d0: 3a33 81bd cf0e 9f3c 0dc5 203c a4d3 ae3b
000000e0: 4c9a 5f3c 4dc9 183e 3014 b8bd fb92 5d3b
000000f0: c5db 31bb b3e1 60be 3b5a 1cbf c32c fd3d
00000100: 06f0 883a 1b93 b9bc cae1 373e ca1e fe3e
00000110: 65b1 52bd e686 263b 19ec df3c ee60 8b3c
00000120: 4663 b6bc 20cb 333b 731c 303c 2450 a5bc
00000130: 12fc 73bd e79f 30bb 9fde 5f3e e598 c7bd
00000140: b010 1fbd 2f60 cb3d 43eb 57be 733d 153d
00000150: 2521 133e 731a 4d3d 333f 9abc 971d 84be
00000160: 1a7c 5dbd 9077 ee3c 823e e53a 9cfa 8f3c
00000170: d82c 60bb 0e86 a23c b67a 87bc ad1e 453b
00000180: e45a f8bc 70d8 72bc 48df de3b d648 bebb
00000190: 467b 52bd 9b1a 45bc 98dc 743c 252e 7cbd
000001a0: da3e ac3c 3b07 37bd 72de 4c3d 2c87 64bc
000001b0: 2476 913c 9327 523c b8b1 89bd dc07 943d
000001c0: 611b ab3e 5a6d 29bb 24be a6bb bf83 d13c
000001d0: bc6a f83c e9b0 a53c 4546 15bc 7a3c 133c
000001e0: 0cda 5f3c 66d0 0fbc 5596 b13c 2f42 9bbb
000001f0: 8582 d0bc e494 55ba 074b 2d3d 63bd 2fbd
00000200: 8ef4 373d 7095 e73c 8602 7cbc 4cb5 243d
00000210: 7b05 873d e58b 2dba 958b aaba 9c90 a43c
00000220: a04d cabd 97bf bc3c 1524 3abe 99fe 82bd
00000230: 2899 39bd 49d3 f3bd 82ea 0cbe f3ee e6bc
00000240: f114 643c 00ca 68bb e119 be3c db44 73bd
00000250: b83d 9a3c 9aea 663c dfc6 803d a83e 943d
00000260: 0550 113c d6e6 bbbc 860b cb3c cfbf afbd
00000270: e6ed cdbd 90f9 e7bd 44fc cb3c 1121 d73c
00000280: 0559 61be 5958 08be 9777 36be 72cd 0bbe
00000290: 1a4a 513c 8db3 853e 957e f53d a7fa 7b3d
000002a0: 003f ba3d 611b ddbc 6f37 aebd 3955 05be
000002b0: fad3 023e 2d5f 363d 7893 d0bc 63cb cb3c
000002c0: 8ae7 c73c f271 aa3a c599 5bbc f490 8dbc
000002d0: 97d8 77bd ff3d c63c 7a68 be39 85a5 a93d
000002e0: 6180 3f3b 5d8e fa3c fd33 fe3c be27 493e
000002f0: 3328 d73d 9e7f 8c3c f23c eebc 11f2 453d
00000300: cefa 7dbc 5905 9d3c 97c3 a3bd 89b5 0f3d
00000310: 8f37 513c d0df 2fbb 50c7 65bd 667a 293d
00000320: 3f1d c03c 7cbd c23c 0165 27bd 8521 b63d
00000330: 599b 3bbd a14d 9dbb 6570 e5bb c6d7 b73e
00000340: f87d 9c3c db69 343d 110b 4bbd 68bc 1f3d
00000350: 8357 cebd 3552 103b b6e2 31bd d97e 453c
00000360: 2164 443d fec2 863d f0d3 933c 08af e73c
00000370: ea8d 3239 9845 0abd 1480 72bd 2c69 9a3c
00000380: 8099 93bc b0d5 003d b1cb 89bd d46b a83c
00000390: ce89 243d 9ce1 183d bfd9 4fbb 51ed 443d
000003a0: a520 da3c 81c2 8dbd 7c8d 543a e49b 463c
000003b0: b470 633d e602 6e3e eb01 00bd 25c1 1cbc
000003c0: feaf ae3c 6105 61bd b0df c43d eac6 a5bc
000003d0: 4836 613c b1eb 1bbd 2f7f cabc 3927 32bc
000003e0: c70c 78bc 0afb 93ba b718 093d 1c1f 24bd
000003f0: 85ff ccbb 062b 503d fcf6 bfbc 6ea7 f0bc
-0.0073271506 0.0051349327 0.04824878 -0.03487511 -0.014945993 0.029440941 -0.02825853 -0.1488411
0.065858305 0.0374465 -0.07448524 0.22632626 0.57488286 -0.057932023 -0.022935906 0.06979185
-0.11423438 -0.6158466 0.050349586 -0.002577772 -0.032725777 -0.07592856 0.16450644 -0.04508345
0.0037616463 0.00021448317 0.036937356 -0.030965272 -0.012646886 -0.020057073 -0.008613496 -0.04802677
0.074683934 -0.004552037 -0.009517646 -0.013878381 0.06880882 0.1578148 0.004153576 0.061455756
0.011644201 0.04190433 0.17454243 0.009948305 -0.01595229 -0.037127938 -0.04385385 0.012040055
-0.046243638 0.024140485 0.0058943825 0.010593268 -0.06308599 0.019416241 0.009812606 0.005335288
0.013647627 0.1492054 -0.089882255 0.003380953 -0.002713905 -0.21961097 -0.6107518 0.12362053
0.0010447509 -0.022653153 0.17957225 0.49632865 -0.051438708 0.0025409996 0.02733426 0.017013993
-0.022264134 0.0027434304 0.01074897 -0.020179816 -0.059566565 -0.0026950778 0.21862267 -0.09745959
-0.038834274 0.09930455 -0.21085839 0.036435556 0.14368112 0.050074052 -0.018828964 -0.25803825
-0.05407343 0.029109746 0.0017489942 0.017575555 -0.0034206416 0.019839313 -0.016538005 0.0030078099
-0.030316778 -0.0148221105 0.0068015195 -0.0058070226 -0.051387094 -0.012030269 0.014945172 -0.061567444
0.021026064 -0.04468463 0.050016828 -0.013948243 0.01775653 0.012826818 -0.0672335 0.072280616
0.33419326 -0.0025852532 -0.0050885845 0.025575517 0.030324332 0.020225959 -0.009110992 0.008986587
0.013662826 -0.008777713 0.02167813 -0.0047381143 -0.025452862 -0.00081474916 0.04230788 -0.042905223
0.04491096 0.0282695 -0.015381461 0.04021196 0.06592842 -0.0006620272 -0.0013011569 0.020088486
-0.09878087 0.023040576 -0.18177827 -0.06396217 -0.045312077 -0.11905534 -0.13761333 -0.028190112
0.013921008 -0.0035520792 0.0232057 -0.059391838 0.018828258 0.014094019 0.06287932 0.07238513
0.008869176 -0.02293722 0.024785768 -0.085815065 -0.10055141 -0.11326897 0.024900563 0.026260884
-0.22006615 -0.13314952 -0.17819057 -0.1365259 0.012774015 0.2611355 0.11987034 0.061518338
0.090940475 -0.026990594 -0.08506667 -0.13020791 0.12776175 0.04452436 -0.025460944 0.024877256
0.024402399 0.0013003929 -0.013403361 -0.017281033 -0.06050929 0.024199484 0.00036317465 0.082835235
0.0029220807 0.030585462 0.03103065 0.19644067 0.10505714 0.017150696 -0.029081795 0.048326556
-0.015501691 0.019167589 -0.0799629 0.035085235 0.012769594 -0.0026836284 -0.056098282 0.041376494
0.023451446 0.023771994 -0.04086781 0.08893112 -0.045802448 -0.004800514 -0.007001924 0.3590681
0.019103035 0.044046264 -0.0495711 0.038998038 -0.10075285 0.0022021655 -0.0434291 0.012054169
0.047947053 0.065801606 0.018045396 0.028281704 0.0001702827 -0.033757776 -0.059204176 0.018848978
-0.01801753 0.03145379 -0.06728304 0.020559229 0.040170483 0.037324533 -0.003171548 0.048077885
0.026626894 -0.06921864 0.0008108241 0.012122128 0.055527404 0.23243293 -0.03125183 -0.009567534
0.021324154 -0.05493677 0.096129775 -0.020236451 0.013745852 -0.03806657 -0.024718849 -0.010873609
-0.015139765 -0.0011290025 0.033470836 -0.04006873 -0.0062560462 0.05082228 -0.023433201 -0.029376712

first_part.0.bias f4 [56]
00000000: 59c0 f13c 2f77 48bd d948 463d b607 823c
00000010: df7e 80bd 4a5a 4b3d 37e7 84bc 093e 9ebd
00000020: dd34 91bc 72da 7dbd 6fda 0abd c50f aabd
00000030: 7947 81bc a798 7fbd 11a9 503d 0f85 e23d
00000040: 6a73 143d 6df7 013d 47ff 85bc 71ae d4bd
00000050: a3ad e63d cd2c b8b8 3086 21bd ecae 90bd
00000060: 6343 89bd 0203 c6bd 8d86 183c 2289 adbd
00000070: 2f44 51be 5367 19bd 1955 1dbd fe75 2ebd
00000080: 9830 a93e 2605 c13c a1fb b93b f525 323d
00000090: 9512 84bd 2b9c 1d3d 5f06 7dbd 0d37 5dbd
000000a0: ea02 98bd 6ee0 693c e282 8ebd 33e4 733d
000000b0: 80a2 433e f4b3 df3c 1bb9 7d3d 1928 673c
000000c0: 4265 d6bd 25a8 da3c 7cda ffbc e3e1 9cbd
000000d0: c980 f5bb d418 6fbd a761 d73c 1a3c 393e
0.029510664 -0.048941787 0.048409317 0.015872817 -0.06274199 0.049646653 -0.016223533 -0.07726676
-0.017725402 -0.061975904 -0.03389972 -0.08303789 -0.015781151 -0.06240144 0.050942484 0.11060535
0.03624288 0.031730104 -0.016357077 -0.103848346 0.11263587 -8.7821485e-05 -0.03943461 -0.07064614
-0.06702306 -0.096685424 0.009309423 -0.08473422 -0.20436166 -0.037452053 -0.038411234 -0.042592995
0.33044887 0.023562025 0.0056757485 0.04349323 -0.06448857 0.03847901 -0.061773654 -0.05400758
-0.07422431 0.0142747 -0.06958558 0.0595438 0.19104958 0.027307488 0.06194411 0.014108681
-0.10468532 0.026691506 -0.031232111 -0.07660272 -0.007492159 -0.058373287 0.026291681 0.18089333

first_part.1.weight f4 [56]
00000000: ee78 babf 2cf2 513f 3fd5 04be b919 a53d
00000010: 1a2b b93f b089 ef3d f14e c83d 509f aa3f
00000020: c411 d73d d451 973f 2394 81be fb94 833f
00000030: 4f77 323f c9d2 583f d5a9 d43d ce82 8e3b
00000040: e7e2 d93f dc5b d33d 8ee0 a53e 0fa0 963f
00000050: a319 8b3f 4617 9bbf 488b 953f 747e 483e
00000060: 1923 bb3f b3d7 363e 9c23 203e 0be3 313f
00000070: 40ac aa3d 20b6 8a3e 371b 643f 74f6 74bc
00000080: 401a 8e40 7027 9ebe 2ffc cdbf 23e4 453e
00000090: dd2f 853f 6a23 a4bf d713 0ac0 df96 1a3f
000000a0: 8ac3 203f 67c7 aa3d 4adf 983f 23f8 993d
000000b0: c8c2 3fb9 24af 9540 697b d2bd d3ba e4bf
000000c0: 01e8 5e3f 67e7 013e b2d0 cabf 7b31 8d3f
000000d0: d6b9 643e ba55 4abe 053b 2b3f 89b7 adbd
-1.4568155 0.8201015 -0.12971972 0.08061547 1.4466279 0.11696184 0.09780682 1.3329868
0.105014354 1.1821847 -0.25308332 1.027984 0.697133 0.8469663 0.103839554 0.004349089
1.702237 0.10320255 0.32397884 1.1767596 1.0867199 -1.2116477 1.168313 0.19579488
1.4620086 0.1785572 0.15638584 0.69487065 0.08333635 0.27092075 0.89104027 -0.014951337
4.4407043 -0.30889463 -1.6092585 0.19325309 1.0405232 -1.2823308 -2.157461 0.6038646
0.6279837 0.08338814 1.1943142 0.075180314 -0.00018287741 4.6776295 -0.10277445 -1.7869514
0.8707276 0.12685929 -1.5844939 1.1030725 0.22336516 -0.19759265 0.6688693 -0.08482272

mid_part.0.weight f4 [12, 56, 1, 1]
00000000: eb57 d33d a6e6 c7be 7e7b dabe 6576 d6be
00000010: c2d2 1b3e b83b 39be e300 753e 3ef0 b1be
00000020: ad48 8d3d 317f 07bd 36b0 5d3e df3e 16bc
00000030: 9628 8e3e 521c 1f3f 97be adbd 6f69 073e
00000040: c84d 833e 3d1f 003d 366f d0bd ee88 0d3e
00000050: a31e 1cbf 5f23 683e 4093 053f 0873 233e
00000060: 2def 3cbe 855d 55be d5a2 ef3e a72e 8abd
00000070: 333f 183f 3a6d b13e 2ff1 4b3e 7c07 10bd
00000080: aee6 3bbe 8262 bfbe ba43 24be d365 54bf
00000090: d497 e73e 06d5 3c3e 7c48 e2bc 122c a73e
000000a0: 1db9 883e 16d4 bdbe cfcb 1c3f e257 423e
000000b0: 20ba 183e bb6c 353e 0f7e a8bc 9a8f eabb
000000c0: 785b 0a3f 973b 843d 2e3f 973d 269a 3f3d
000000d0: 3bb5 9b3e 5261 fbbc ea2b 9ebe 04bc b03e
000000e0: 8eb4 e7be 42de ea3c d7ea 883f 5705 963e
000000f0: 156b 1d3e 7c12 193d 6017 a0be 6646 18bf
00000100: b528 b73e 6fb0 1b3e 722f 16be d80d 62be
00000110: aabe 70be 17c3 fbbe eae3 9dbe 9711 353f
00000120: 29a7 8cbd be1a a33e 1a8a 56be 8e5f 07bf
00000130: 5383 063f c59e 2d3d a024 c0bc 8204 173f
00000140: cae7 43bf 8f9f 92be 73a7 2bbc f54a 36bf
00000150: f602 b8bb 1def fe3e 6576 0a3f d791 d43d
00000160: 0b4e a5be a3e9 5a3e 38df 97be e633 cc3e
00000170: 2e5b 713d 1597 67be 2f93 593c 040d c0bd
00000180: f51a e5bd 67c8 37be 5a72 88be cda7 6ebf
00000190: 1b76 443f d175 94bd 2651 483d cfed 953e
000001a0: 89fa 353e 2a9a eb3e 872d 1fbd f665 273f
000001b0: b148 20be 2c82 05bd 0aa3 1abe 9a99 b13e
000001c0: 89a2 51be 521d 293f 10a5 7b3e eabf dfbd
000001d0: 4642 c7be 8e27 dabd c05c 0abf fd95 783d
000001e0: 786e 1e3f 8e2a d5be 5039 143e a2f8 903d
000001f0: c0ef 21be 606e d9be 4685 05be 6bc3 263e
00000200: f39c 0ebf 8107 cb3e 7ab5 44bf 4448 413e
00000210: c204 7d3e 9169 2dbe fc3d 0e3f f6cb 3e3d
00000220: fd32 4b3f db80 6c3d 3946 83be fa53 3e3c
00000230: 71a1 073f 5703 e23c 763e 5c3f 60a1 d0bd
00000240: e216 203e b1b8 1dbe 95d5 653d 25dc 46be
00000250: ba7d 0e3a 25f7 d2be 5ec5 093e 1721 e5be
00000260: c92e 98be fafc 733e 4d07 2fbe 38cd 27bf
00000270: 282d 1d3e 8c6f 1b3d 4a79 4c3e 3f36 1d3e
00000280: ead8 a5be 0f4a 03bf c2d7 973e deb2 923f
00000290: 860e 8fbe 9427 1cbe ecf3 bf3e a47d a03d
000002a0: a2d7 7bbf 2bcc d1be 235e b1be be4e 1abe
000002b0: 1017 063f 6889 5cbb 45d5 50bd 61b3 ab3e
000002c0: e05e 80be c763 bcbe 5609 383e 05f9 23bf
000002d0: a4c4 813e 5109 b4bd a6f2 9b3e f86c 36bf
000002e0: f154 4abf c269 1e3f c812 16bf 1843 543e
000002f0: 76a5 bcbd b254 e43d 8993 06bf 6ee5 ccbe
00000300: 1274 1fbe 1466 043e b82c ddbc c984 8f3f
00000310: 0beb 183f 8780 e8be 7afa 0ebe a3d2 8ebd
00000320: b6b8 adbe 46b4 983e 86a2 003e 78f2 703d
00000330: df23 04be d4e9 9cbf 3250 0cbf 48ad ebbe
00000340: a52a ab3e 5aa3 06bc 0859 d7be 6fdb 903d
00000350: 8473 dbbe 4656 0b3f a774 84be 3937 da3e
00000360: 7e34 183f 59df c83e 8935 e8bd b77a 0bbf
00000370: 9745 743e b316 34be 916e c33e 46a1 4abf
00000380: 1c0c 8d3e adc3 dc3e 4a5a 9b3e 7bbd e6bd
00000390: 5c5d ff3d 6e28 e33e 3e93 abbe 0de8 b93b
000003a0: fdc0 3ebf 064a 133e 451a 103e 4bd2 1ebe
000003b0: 2308 883e fb29 d13e 890b 4bbf 7c6b e63e
000003c0: 2166 13bf 8f9c 61bb 159c 5ebe e792 913d
000003d0: 103a cabd b529 88bd c2a6 203f f708 873a
000003e0: 480e 2c3f 8edd cc3d bbb9 883f 7d6c e4bd
000003f0: bced 0cbf 8421 7ebd be07 68be 7d2d c9be
0.103195034 -0.39043158 -0.42672342 -0.41887203 0.15217116 -0.18089187 0.2392612 -0.34753603
0.068986274 -0.033080284 0.2164925 -0.009170263 0.2776534 0.6215259 -0.08483618 0.13223813
0.2564528 0.03127979 -0.10177462 0.13821766 -0.6098425 0.22669743 0.5217781 0.1596185
-0.18450613 -0.20836456 0.46803918 -0.067471795 0.59471434 0.34653646 0.19916223 -0.035163388
-0.18349716 -0.37379843 -0.1604146 -0.8296787 0.45233023 0.18440637 -0.027622454 0.3265081
0.2670373 -0.3707587 0.6124849 0.18978837 0.14914751 0.17717259 -0.020567922 -0.007158232
0.5404582 0.06456678 0.073850974 0.046777867 0.30411705 -0.030686054 -0.3089288 0.34518445
-0.4525494 0.028670434 1.0696667 0.2930095 0.1537288 0.037371144 -0.31267834 -0.5948242
0.35773245 0.15204023 -0.14666536 -0.22075593 -0.23510233 -0.4917228 -0.30837947 0.70729965
-0.06867821 0.3185634 -0.20951119 -0.5288018 0.52544135 0.042387743 -0.023454964 0.58991253
-0.7652556 -0.2863736 -0.010476935 -0.71208125 -0.0056155873 0.49791804 0.54086906 0.10379379
-0.32286105 0.21378188 -0.2966249 0.39883345 0.058924846 -0.22616227 0.01327972 -0.093774825
-0.11186782 -0.17947541 -0.26649743 -0.93224794 0.76742715 -0.07249034 0.048905514 0.29282996
0.17771353 0.46016055 -0.038861778 0.65389955 -0.1565273 -0.032594845 -0.15101257 0.346875
-0.20472158 0.66060364 0.24574685 -0.109252766 -0.3891775 -0.10652076 -0.54047775 0.060689915
0.6188731 -0.4163403 0.14474988 0.07078673 -0.15814114 -0.42467022 -0.13039121 0.16285484
-0.55708236 0.39654163 -0.7683941 0.18875223 0.24708846 -0.16934802 0.5556333 0.04658123
0.79374677 0.057740074 -0.25639513 0.011616701 0.52980715 0.027589483 0.8603281 -0.1018703
0.15633729 -0.15402485 0.05611189 -0.19419916 0.0005435605 -0.4120418 0.13454196 -0.44751808
-0.29723194 0.23826972 -0.17092629 -0.65547514 0.15349257 0.037948176 0.19968143 0.15352724
-0.32392055 -0.5128488 0.29656798 1.1460836 -0.27940768 -0.15249473 0.37490785 0.07836464
-0.98375905 -0.4097608 -0.34642133 -0.150691 0.5237894 -0.0033651236 -0.05098464 0.33535293
-0.25072384 -0.36794874 0.17972311 -0.6405185 0.25345337 -0.087908395 0.30458564 -0.71260023
-0.7903586 0.61880124 -0.5862241 0.20728719 -0.09211247 0.11148967 -0.5256887 -0.4001879
-0.15571621 0.12929565 -0.026998863 1.1212398 0.5973365 -0.4541056 -0.13962737 -0.069737695
-0.33929986 0.29825038 0.12561998 0.058824986 -0.12904309 -1.2258859 -0.5480987 -0.4603064
0.33430973 -0.008217657 -0.42060113 0.07073104 -0.4286157 0.5442852 -0.2587025 0.42620257
0.59455097 0.392329 -0.11338336 -0.54484123 0.23854671 -0.17586784 0.38170293 -0.79152334
0.275483 0.4311804 0.30342323 -0.11266609 0.12468979 0.44366783 -0.33510774 0.0056734146
-0.74513227 0.14383706 0.14072521 -0.15509908 0.26568708 0.4085234 -0.79314476 0.4500388
-0.5757771 -0.0034425592 -0.21739228 0.071080975 -0.09874356 -0.0664858 0.6275445 0.0010302354
0.6720929 0.10003196 1.068168 -0.11153505 -0.55050254 -0.06204368 -0.22659203 -0.39292517

mid_part.0.bias f4 [12]
00000000: 3d51 adbd 0e0c aabc 0872 9abd 8c6f 69bb
00000010: a4a4 f53d 0c23 cbbd 484e f9bd 0635 a1bd
00000020: 893c f7bd 02e5 0ebe 4f5c d6bd 38d8 823d
-0.084627606 -0.020757701 -0.07541281 -0.0035619466 0.11994293 -0.09918794 -0.12173134 -0.078714415
-0.12072093 -0.13954547 -0.10466825 0.06388897

mid_part.1.weight f4 [12]
00000000: d383 7e3f b66c b73e 4c57 7c3f b4d3 793e
00000010: 5edc 483f 0ecc 6c3f 972d 763e 2e74 813f
00000020: d2aa 303f fa49 6c3f f86a 043f 4b08 8c3f
0.994199 0.35825127 0.98570704 0.24397165 0.78461254 0.9249886 0.24040829 1.011358
0.6901065 0.9230038 0.5172572 1.0940031

mid_part.2.weight f4 [12, 12, 3, 3]
00000000: d0ee cbbc 523b 2c3e 5629 feba 94e9 81bc
00000010: e320 f03c d607 133d 56c3 03be 6604 bdbc
00000020: cde8 96be 09d9 6fbd e273 15be ee2f 3f3e
00000030: 418f 92bd 2822 00be a308 66be ab19 3e3e
00000040: 6a9f e9bc 506a 4abc 40e6 80bd 9501 fe3c
00000050: c972 2bbe 51ff 17be 77af fe3d 580f 8bbe
00000060: 6e42 b93d 2cbc de3d a9d5 a4bd 4223 873d
00000070: e850 4bbe 29d8 3c3e 5c3a c8bd a793 5abe
00000080: ddd3 ce3e e5a2 8d3d ac20 bcbb 8be7 0dbd
00000090: 4e45 0c3e 5bc2 453d 6211 9cbd 99ec bc3d
000000a0: 2679 c23d 8aee 8dbe 8303 88bd d94f 343e
000000b0: de99 463d 9837 64be e88a 1fbe 42f6 803d
000000c0: ab2c bb3e 2fcf 7b3e c91f 323d fa5a 58be
000000d0: bbb0 f63d ef70 713d 7bb2 03bd dacc bf3c
000000e0: 3581 d6bd 424b 7dbd 0b42 0cbe c6ab 23be
000000f0: 8110 dfbd 51a8 d4bd dc73 233e 9a88 dfbb
00000100: 927e 413e 2d92 59bd 9dca dc3d e5d4 0bbd
00000110: 1cf3 7fbe c2eb 253e 69dc 703b a233 933d
00000120: c32a 55be 0957 833d 52ac 083d 3b58 5abe
00000130: f230 023e 636f ddbe 7b32 103e adda 433e
00000140: 8ef2 433c 2c80 943e 8d25 6b3c ffd0 473d
00000150: 141a 80bd bb89 8b3c eaa8 313c f509 183e
00000160: bb14 2d3e 8402 9f3d d794 83be 9a6d b43e
00000170: e54a 59bd 01d6 eebc ff2c 793e 9f39 85bd
00000180: 3191 553e 1695 b2bd 65f0 333c bf23 013e
00000190: 732b 2abe 143f aebc 95e4 8d3e 7c93 073e
000001a0: 5c6b 56be 9592 2dbe aad6 7dbd 5d4b 37be
000001b0: 6b82 003b f219 d1bd 79a6 02bb f1c3 bc3d
000001c0: 185b 20be 7d61 99bd cb7a c53d ea4e a63c
000001d0: 82f0 b9bd f630 05be fb31 bfbd e315 1dbe
000001e0: 65a2 633e 2702 92be b45d a7be 7da2 a43a
000001f0: 132c ef3c 027e 003e f484 be3c 043d ff3c
00000200: 56c7 1e3c 3138 b73d e130 96bd ffb7 33bd
00000210: 4e6a 76bc 3fac 4e3d ff70 0c3d 356d 603e
00000220: 14a6 90be e4f9 a7be 1193 7e3e 51dc b23e
00000230: 4a49 0cbe 675f 2e3d 2f0f 953e 8ece 593d
00000240: 7efb fe3c 4c7d 213b 9c27 f53d 11bf 82bd
00000250: c772 0ebf 8d71 3dbd a9fe b5bd d006 083c
00000260: 2514 4b3e fb61 233e 7cf1 90be 7652 bf3e
00000270: 8b0e 2cbe 695c bbbe de6e d83e 9f1c f6bc
00000280: af31 873d 40c3 583e d750 04be 0422 453f
00000290: e318 2e3e ce33 513e 6fca f33d 530b a0bd
000002a0: e546 013e 41c3 d63d f0a1 f5bc 09eb 393e
000002b0: 427b 5bbe be00 133d d30d 073e 957f 2ebe
000002c0: e9de 7d3e 52c1 a2bd 0dc1 5a3d 7d03 b9bd
000002d0: 95da 393e 7bbc d5bd 0de6 bf3e 6dfd ae3c
000002e0: 8d7b 39bd 48f7 243e d807 763d 31bd 093e
000002f0: 9082 8d3d 807f 27bd 072a c13e f838 a3bd
00000300: a98e 1b3e 6188 00be 52be 513e b37f ab3c
00000310: f97b 4c3e cf35 54bd 65c6 bb3e aaf6 55be
00000320: 1897 0a3e de31 123e d65e 903e f8bc eabd
00000330: fa20 023d 3d0e 06be 7913 1b3c 4fab 89be
00000340: e9f7 ccbc a83a f43d c1f0 89bc d9f2 a93d
00000350: e1c2 0c3d b7df b8bd 0e63 cc3d 3472 c63d
00000360: bcb8 5c3d 6f6d 1abe 28e1 cb3d 8693 78be
00000370: c46f ca3e 34da 8abe e92a b4bc a1e8 983a
00000380: 5f78 d7bc c0a9 8abd 453d 49bd d90a 3ebd
00000390: 2ec2 93be af9a 1d3e a5ba 8bbd 1836 55bc
000003a0: cf56 db3d 1851 40bc 1a15 f23c bfab e1bd
000003b0: ad28 ecbc 69df 963d b1ff 1bbb a21a 0a3e
000003c0: 0f8d c7bd 460f 523e 263f 0a3d 37a1 1d3d
000003d0: 1621 36be a242 c2bd c7f6 123e a67a 37bd
000003e0: d597 97bd 31fb 333d 6578 90bd 33a0 d33c
000003f0: 2066 da3d 17cf d8bc 7049 4ebc 9bbf 29bd
-0.024894148 0.16819504 -0.0019390981 -0.015858449 0.029312557 0.035896145 -0.12867483 -0.023073386
-0.29474488 -0.05855659 -0.14594987 0.18670627 -0.0715623 -0.1251303 -0.22464232 0.18564479
-0.028518397 -0.012354448 -0.06293917 0.031006614 -0.16743006 -0.14843489 0.12435811 -0.27160144
0.090458736 0.10875735 -0.08048565 0.06598522 -0.19855082 0.18441834 -0.09776756 -0.21345387
0.40396014 0.06915835 -0.0057411995 -0.034644645 0.13698313 0.048281055 -0.07620503 0.09224815
0.094957635 -0.27721053 -0.06641295 0.17608584 0.048486583 -0.22286832 -0.15580332 0.0629697
0.36557516 0.24590753 0.043487344 -0.21128455 0.120454274 0.058945592 -0.032152634 0.02341311
-0.10473863 -0.06183935 -0.13697068 -0.15983495 -0.1089182 -0.10383666 0.15962166 -0.006821704
0.18895939 -0.05311792 0.10780833 -0.03413858 -0.24995083 0.16203216 0.0036752468 0.071875826
-0.20817094 0.06413085 0.033367462 -0.2132272 0.12713984 -0.43249044 0.14081757 0.19126387
0.011959685 0.29004037 0.0143522145 0.0487833 -0.06254974 0.017033448 0.010843495 0.14847548
0.1690244 0.07764152 -0.25699493 0.3523987 -0.05304994 -0.02915478 0.24333571 -0.06505131
0.20856167 -0.08719842 0.0109826075 0.12611292 -0.16618137 -0.021270312 0.27713457 0.13239855
-0.20939392 -0.16950448 -0.061972298 -0.17899843 0.0019608985 -0.10210027 -0.0019935651 0.0921706
-0.1565975 -0.074892975 0.096425615 0.020301301 -0.09079076 -0.13006958 -0.09335705 -0.1534038
0.22229917 -0.28517267 -0.32688677 0.0012560632 0.02919582 0.12548068 0.023256756 0.031157024
0.00969108 0.089462645 -0.07333542 -0.043876644 -0.015039993 0.050457235 0.03428745 0.21916659
-0.28251708 -0.3280784 0.24860789 0.34933713 -0.13699833 0.04257145 0.29113147 0.0531755
0.03112578 0.0024641333 0.119704455 -0.06384099 -0.55643886 -0.04625087 -0.08886463 0.0083024055
0.19831903 0.15955345 -0.28309238 0.373676 -0.16802423 -0.3659394 0.42272085 -0.030042944
0.06601273 0.21168232 -0.12921463 0.7700503 0.17001681 0.20429918 0.119038455 -0.0781466
0.126247 0.104864605 -0.029984444 0.18156065 -0.21433738 0.03588938 0.13188867 -0.17040856
0.24792065 -0.07947029 0.053406764 -0.090338685 0.18149789 -0.104363404 0.37480202 0.021361077
-0.045283843 0.16109955 0.060066074 0.13451077 0.069096684 -0.040893078 0.37727377 -0.0796985
0.1519114 -0.12552024 0.20482758 0.020934915 0.19969167 -0.05180913 0.366748 -0.20894876
0.135342 0.14276835 0.28197354 -0.11461824 0.03176973 -0.13091369 0.009465092 -0.2688851
-0.025020557 0.1192525 -0.016838433 0.08298273 0.03436554 -0.09027045 0.09979831 0.09689751
0.053887114 -0.15080808 0.099550545 -0.24275026 0.39538395 -0.271196 -0.021993117 0.0011666009
-0.026302515 -0.067706585 -0.049130697 -0.046397064 -0.28859085 0.15391038 -0.06822709 -0.013013385
0.10709917 -0.011738084 0.029551078 -0.11019086 -0.02882799 0.07366831 -0.0023803527 0.13486722
-0.09743702 0.20513639 0.03375163 0.038483825 -0.17786059 -0.094853655 0.1435195 -0.0447947
-0.074020065 0.043940727 -0.070542134 0.025833225 0.1066401 -0.026465936 -0.012590751 -0.041442495

mid_part.2.bias f4 [12]
00000000: 7a8d 083d 867f 973d f9c9 74bd 98fd a0bd
00000010: 3cea b03d 51de f0bb 25ec 20bd 1872 b9bc
00000020: 34c2 99bb 1250 523d 4ecd ffbd f564 ddbc
0.033338048 0.0739737 -0.05976293 -0.07860869 0.08638427 -0.007350721 -0.039287705 -0.022637412
-0.0046923403 0.051345892 -0.12490331 -0.02702568

mid_part.3.weight f4 [12]
00000000: bdee 6d3f 5db1 343f a554 f63f bfde 533e
00000010: 7812 613f 4160 8c3f e984 253e e17b 5b3f
00000020: 0a9f 7f3f 4241 5b3f 5443 493f 3d06 273f
0.9294241 0.70583135 1.9244581 0.2069044 0.87918806 1.0966874 0.16163982 0.857359
0.9985205 0.8564645 0.7861836 0.65243894

mid_part.4.weight f4 [12, 12, 3, 3]
00000000: 876e 953e c8d0 3dbe a4d0 373d 4fb8 d1bc
00000010: 485f 2fbe e13c ec3c cb68 c03d 79cb 17be
00000020: 5794 b23d d549 17be 9212 ce3d 25be 53bd
00000030: 4021 7c3e f306 4bbd 78ff 963e e92b d93d
00000040: 4cef 99be 99d7 be3d 979c 073d 921c 3bbe
00000050: ed0a ce3d 52c7 d1bd 32b8 6a3e 2e18 153e
00000060: 0bff 8bbe 6dee 9dbc 74e0 413e 0a48 a1bd
00000070: 8d47 c1bd fe21 17be bfea 25be d40d 323d
00000080: df5c a8bd 8935 00be 222c 013f 3c7d 55bd
00000090: e8e2 efbd bfd7 fcbe fbb6 dabb 9b74 24be
000000a0: 8cc3 4b3d 40d4 b4bb 50bd ee3d 7140 ff3d
000000b0: 4c91 04be f80b 06be c162 24be aa33 26be
000000c0: b3a2 87be cdce 913e cfab b2bc 88a9 b8bc
000000d0: ff56 51be c99f b6bc 433a a5bd 3129 193e
000000e0: e9aa 6abc 1be1 99bd 54bd aabd 2822 a13d
000000f0: ab23 8f3d 1955 203d bc48 66bd d65d a6bd
00000100: 8276 db3d f0d2 fd3d 721f d4bd b997 2cbe
00000110: b49e e0bc d0e8 eebd 7cb0 00be 593c 3a3d
00000120: f86f 1dbe d8e1 67bd c6d8 80be d439 273c
00000130: f609 c4bd c6ef bdbd a769 40bd 924a 573e
00000140: 55c6 82bd 56c1 b6be 27f6 f0bd cfe3 64bd
00000150: d69e 0e3e 9e1f bbbe b4a6 88bd b600 f33b
00000160: 3739 07be fe59 ac3c 694e 05be 8c92 3c3e
00000170: 3417 84bd b10e 603e d230 92bd 0bc1 89be
00000180: dc9b 94bd bdd0 12be 1f14 3ebc 377f 5ebd
00000190: 9e66 35be 7c44 efbd 7e2d 27bd ba7b b1bd
000001a0: 8274 ab3e c327 d83c 83c2 17be a13c 493d
000001b0: a0e9 bd3a 3584 b0be a24d 68be 247e bbbd
000001c0: 4cfa 6abe 4a36 613d 3030 a83c 112b 80bc
000001d0: 18db 9ebd 7af4 32be f8c7 3cbd b8f2 5abe
000001e0: 6d3d 8ebd 1d62 433e bdb4 4cbe 6bcf 0fbe
000001f0: 961b d83d e561 af3c 6185 0abe 4814 0f3e
00000200: 82c7 e2bb aa7e ae3d d884 a53e ee59 c2bd
00000210: 8295 78be 58d9 6c3e 1df1 7fbb fdb9 a1bd
00000220: bea3 86bd 57a2 483c 2ff7 4d3e ecc3 1e3d
00000230: 48ad 4e3c 9674 12be 23e4 babe db2f 6e3e
00000240: e2e1 aabd a10a debe 93ac b3be d2c8 3c3e
00000250: 6da5 6b3d cbd3 c03e 023f 22be 90d2 cdbd
00000260: 1ae4 b33d 17e8 0ebd e2d8 cb3c 6802 d6bd
00000270: 0ae4 c23c dbe4 e63d 2e83 913c 05fc 253e
00000280: 3564 063e 71e0 3cbc 749f d4bd 4206 d93e
00000290: cdb4 ecbc bc4a 923d b9b6 5c3e 8d99 123b
000002a0: e80b b3bd 0cec a8be 4602 bcbe 3ca6 833c
000002b0: 90df f2bc 430d 973d f81e 853e c043 88be
000002c0: 2fc5 63bd 8b1e 253e 0458 01be ae28 91bd
000002d0: 2222 c93d d556 e8bd 692b 91bd c4eb b0bd
000002e0: b975 2d3e 4209 f7bd 188e b63d 8c1f 9dbe
000002f0: 789a 223d bfc5 8cbd 0dd5 04be 8aa1 87be
00000300: d8d0 81bd 3fae 03be 7daa 253e cc0a 48be
00000310: e9d2 573e bd74 1d3c 6022 f2be d4ac f53e
00000320: 387a 1c3f 7d25 a1be 0473 0ebe 973f 9dbe
00000330: 9a96 17be e7fa ffbd 55fc 283e 0da1 123e
00000340: 297b 09bb b06e c4be 4a2e 7c3d 2c71 a6be
00000350: e7d9 5a3d d05c e8bc 680a 4a3e d4d6 c43d
00000360: 0650 bf3d 9f90 2bbe 1eb1 2cb9 794e fbbc
00000370: 25c7 0c3d d4da 17bd 57ee 91bd 3dfa 0f3e
00000380: 6455 2ebd 287a f1bd bac2 2a3e 3544 ce3d
00000390: 3231 17bf 6efe 3bbe d088 9d3b 146c d93d
000003a0: 3128 42bd 9b64 71bc 6aee 8cbd 9758 83be
000003b0: 7ef3 cbbd 5488 b2bd e449 503e f914 6ebc
000003c0: 39ef 06bd 21ff 0cbe 5434 213e 6181 2dbe
000003d0: a2f7 75be 7838 383d 44b2 febd 1cc8 2b3d
000003e0: b985 d73d a82c f2bc 3f6d b7bd 09f9 72be
000003f0: 0952 6fbd abef 64bc e9b8 163d b8cd 33be
0.29185888 -0.18536675 0.04487671 -0.02560058 -0.1712619 0.028837623 0.09394988 -0.14823712
0.087197 -0.14774258 0.10062136 -0.051695008 0.24622059 -0.049567174 0.29491782 0.10604078
-0.30065382 0.09318466 0.03310832 -0.18272617 0.10060678 -0.102430955 0.22921827 0.14560005
-0.2734302 -0.01927873 0.18933278 -0.078750685 -0.09437475 -0.1475906 -0.1620283 0.04347022
-0.08220839 -0.12520422 0.50457966 -0.052121386 -0.11713201 -0.4938335 -0.006674645 -0.16060106
0.049747035 -0.0055184662 0.11657202 0.12463463 -0.12946051 -0.13090503 -0.16053297 -0.16230646
-0.26491317 0.2847809 -0.02181044 -0.022541776 -0.20443343 -0.022292988 -0.08067753 0.1495712
-0.014322975 -0.075136386 -0.08336893 0.07867843 0.06989225 0.039143655 -0.05622171 -0.081233665
0.10715963 0.12393749 -0.1035756 -0.16854753 -0.027419426 -0.11665499 -0.12567323 0.04546771
-0.15374744 -0.056611866 -0.25165385 0.010206658 -0.095722124 -0.09274249 -0.046975758 0.2102454
-0.06385485 -0.3569438 -0.117657 -0.055881318 0.13927779 -0.3654756 -0.06672421 0.0074158562
-0.1320542 0.021039005 -0.13018192 0.18415278 -0.06449738 0.21880604 -0.07138218 -0.26905093
-0.0725629 -0.1433744 -0.011601477 -0.05432054 -0.17714927 -0.11682984 -0.04081487 -0.08666177
0.33487326 0.026386147 -0.14820294 0.049130086 0.0014489181 -0.34475866 -0.22685865 -0.09154919
-0.22947043 0.054983415 0.02053079 -0.015645536 -0.077566326 -0.17476073 -0.046089143 -0.21381652
-0.0694531 0.19080396 -0.19990821 -0.14043967 0.105521366 0.021408984 -0.13527443 0.1397258
-0.006920756 0.08520253 0.32327914 -0.09489809 -0.24275783 0.23129785 -0.0039053627 -0.078968026
-0.065742 0.012245736 0.20113824 0.038761064 0.012614556 -0.14302287 -0.3650218 0.23260443
-0.08343865 -0.43367484 -0.350926 0.18435982 0.05753081 0.37661585 -0.15844348 -0.10049927
0.08783741 -0.034889307 0.024883691 -0.10449678 0.023790378 0.112741195 0.017762747 0.16209419
0.13124163 -0.01152812 -0.10381976 0.42387587 -0.028894806 0.07143161 0.21554078 0.0022369355
-0.08742505 -0.3299259 -0.36720484 0.016070478 -0.029647619 0.07375576 0.2600019 -0.2661419
-0.05560797 0.16124932 -0.12631232 -0.07087837 0.098209634 -0.11344687 -0.07088358 -0.08638719
0.16939439 -0.12062313 0.08913821 -0.3068813 0.039698094 -0.068736546 -0.12971897 -0.26490432
-0.06338662 -0.12859438 0.16178317 -0.19535369 0.2107655 0.009610352 -0.4729185 0.4798342
0.6112399 -0.31473914 -0.13911062 -0.30712578 -0.14803544 -0.12499028 0.16502507 0.14319248
-0.002097795 -0.38365698 0.061567582 -0.32508218 0.053430464 -0.028364569 0.19730532 0.09611288
0.09341435 -0.16754387 -0.0001646918 -0.030677067 0.034369607 -0.037073925 -0.07125538 0.14060302
-0.042561904 -0.117908776 0.16675845 0.10071603 -0.5905944 -0.18358776 0.004807569 0.106163174
-0.04740161 -0.014733459 -0.068814114 -0.25653526 -0.09958552 -0.08717409 0.20340687 -0.014531367
-0.032942984 -0.13769199 0.15742618 -0.16943885 -0.24020246 0.044975728 -0.12436345 0.041938886
0.105235524 -0.02956231 -0.08956384 -0.23727812 -0.058427844 -0.013973157 0.036797438 -0.17558944

mid_part.4.bias f4 [12]
00000000: 71b2 27bd 210c 81bd b100 aa3d 7b38 983c
00000010: 55ed 9bbb 0c71 6b3a 7cc6 30bd dff7 34bd
00000020: 31a7 ee3c 59eb ee3d 0e00 2d3d 7ae4 403c
-0.04094166 -0.063011415 0.08300913 0.01858162 -0.004758517 0.0008981384 -0.04315804 -0.0441817
0.029132457 0.11665983 0.04223638 0.011773223

mid_part.5.weight f4 [12]
00000000: f359 7e3e cbe2 ba3e c9d1 3e3f 59a3 6a3f
00000010: a103 25bd bfba 823f 6fa2 6e3f 906f ea3f
00000020: 7d9b 6e3f 8e3e 0c3f 9c3a 853f b86b 8a3e
0.24839 0.36501154 0.74538857 0.916555 -0.040286664 1.021324 0.93216604 1.8315296
0.93206006 0.5478295 1.0408511 0.27035308

mid_part.6.weight f4 [12, 12, 3, 3]
00000000: f499 023c d64d 8b3c c090 05be d4bf 58bc
00000010: d84f 54be 5f91 e7be 0b1c 48be f9f9 4f3c
00000020: 8e6d f6bd 931e 00bd 39d0 e03d 7269 453d
00000030: 8130 1dbe f842 a6be 13dd 543d 7643 e7bd
00000040: 31c6 81be b637 803e 175d c93d ee1a bb3d
00000050: 6284 abbc 2e18 833d d521 db3e 36ae ccbd
00000060: ebbb e73d 6c45 a3be aea3 573e ccdb 4cbd
00000070: 26b1 b6bd 4527 3bbd fb4d 263e 0ce3 883d
00000080: 417c ab3e 9e4b 14be 015b c2be c158 b2bb
00000090: 7b05 993d c67f 7b3d 56fb 25bd 64ef d5be
000000a0: 1d7f 59be b563 203d 096f 34be 25ce bebe
000000b0: 236a aebe a5c2 a63c 3d01 8ebd 72fb 0a3e
000000c0: dbf8 f03d 8ccc 793e abef bebd 6af1 d23c
000000d0: 8891 973e 8776 21bc 3b4c 09bd 5d27 d0bc
000000e0: fa90 f0bc 48d4 58be 7c4e 0d3f bae9 97bd
000000f0: 9850 aa3c 2c24 e8be 917d ff3c ef5f 20be
00000100: 77ab dfbd 02ef 163d 282d 9a3d 47a2 6d3d
00000110: 6dcc 9c3b cdd4 243d 33e4 c03c 2bfb 63bc
00000120: 5301 ab3d 7ade 433e 54c4 9abc 1c80 93bd
00000130: 3570 253e 55cd 84be d393 59bd d2d1 4abe
00000140: 8aca 273d 5df2 16be 35f5 25be b5f6 fd3d
00000150: ff81 2bbc 455a 64be 25cf 92bd eba0 603c
00000160: 0609 3c3d 8146 283e a504 87bc 0f20 033e
00000170: 82a1 edbd 1eee 03be 5c5f 83be 50ac 1ebe
00000180: bc00 273e 52be 953d adb2 bc3d 823e 503d
00000190: 33d3 62bd dfc9 6ebd a5b2 513d 1189 883e
000001a0: be1a e8bd e683 0a3e 4bcb 523e faad d43c
000001b0: 8633 bdbc 0860 d5bd 15c1 d63c c0f1 a43d
000001c0: f5a8 b8bd fa62 85be 5cd2 7a3d fd0b 6a3c
000001d0: e4fe 50be 7558 fbbc 9762 17bd fb0a 97bd
000001e0: be48 813d a777 483d 1ed9 00bd d8ff 3ebd
000001f0: 07d7 be3d 97d8 a73d 2723 f9bd 435b adbd
00000200: 0337 063e ae0f 383d 1c09 0b3e 8a55 143d
00000210: 4a13 f0bd 0f6e babb b660 d2be c7a9 4c3c
00000220: 33b9 ba3c c651 09be 7be2 7b3e 5876 893e
00000230: 169a a7bd cd60 edbd 4283 c4bd e45d 3dbd
00000240: 16b2 4c3d e2bb 02be 1604 50bd e85c 493b
00000250: 3cb6 313e 6789 b73d c09f 3a3d 0645 84bd
00000260: 55b3 b33d 56ae 2abb 6937 2cbe 6d78 31be
00000270: 771e 7b3e ef99 da3d 3c88 10be 22b3 8cbb
00000280: 62aa f83d 7ab3 eb3d 4a57 25bd 2f6f 9bbd
00000290: b697 c43d fbe5 66be 3352 003e 2b99 f13d
000002a0: 047c b6bd b399 653e 3c21 1fbc 30e8 793d
000002b0: 9bb2 043e 58ea aebd f2b7 e93d 2340 5ebe
000002c0: 1f8b 253e 3e3c dabd 72e9 2a3d e384 b839
000002d0: 9327 5d3e cd0f 543e 9bc7 c43c b266 413d
000002e0: 9493 60bd 0cee 093e a862 a2bd 825b 7f3e
000002f0: 8ef6 8fbd 5ba2 4a3e 72dc 8d3d fcee f83c
00000300: 241e d63d 5d6c 0ebe 9063 65bc 1f2f c53d
00000310: 5095 f13d 53a3 4ebe a886 0f3e 5215 0f3e
00000320: 32c3 703e 53de 743e ea70 b23c 1f92 0bbe
00000330: 356c 343d 0be9 94bd 401f 933a 10ed 64bd
00000340: 0d13 743d 4f88 5abe 911c 56bc 4fa3 813d
00000350: 6179 763d 4db1 9bbd 09a9 6b3c 5333 2dbc
00000360: 89d2 8c3b b101 06bd 41ca 04be cfa9 8a3c
00000370: 48a8 0e3e a357 5e3e 2fa5 08be d68c e1bc
00000380: 85ae 003e 7dc6 71bd 4705 60be bdd0 67be
00000390: 4184 47bc 237c 97bd 4062 c63e dcdb cdbd
000003a0: 9707 8e3d 7121 cfbc 203c 04be b18b 323e
000003b0: c6ff 6fbe e249 9abd 8b48 1abe 3a71 3a3d
000003c0: 5bb8 d2bd be2c a03d d626 973e 6648 34bc
000003d0: 2edd c1bd f76f 323e 1cbd cfbd 6c23 283e
000003e0: d128 333d 5cee 3ebd 550b 0e3e a899 7e3d
000003f0: 7e72 c73d 36af 263d 2a21 dcbe 885d ddbc
0.007971276 0.017004889 -0.13043499 -0.013229329 -0.20733583 -0.45228097 -0.19541948 0.0126938755
-0.12032615 -0.031279158 0.10977215 0.048196264 -0.15350534 -0.32472968 0.051968645 -0.11292164
-0.2534652 0.25042504 0.098322086 0.09135996 -0.020937148 0.06401096 0.4279925 -0.099941656
0.113151394 -0.31888902 0.21058533 -0.050014302 -0.08920507 -0.045691747 0.16240685 0.06683931
0.33493236 -0.1448197 -0.37960055 -0.005442709 0.074717484 0.06140115 -0.040522896 -0.41784203
-0.21239896 0.039157588 -0.17620482 -0.3726665 -0.3406535 0.020356486 -0.0693383 0.13572481
0.117662154 0.24394435 -0.09323057 0.02574988 0.2960322 -0.009854919 -0.033519965 -0.025409395
-0.029366005 -0.21174729 0.5519788 -0.07417627 0.020790383 -0.45340097 0.031187804 -0.15661596
-0.10921376 0.03684903 0.07528144 0.058016088 0.0047851116 0.040242005 0.023546314 -0.013914864
0.08349862 0.19127837 -0.018892445 -0.07202169 0.16156085 -0.25937906 -0.05311949 -0.19806603
0.04096464 -0.14740892 -0.1620682 0.12400571 -0.010468005 -0.2230006 -0.07168416 0.013710241
0.045907043 0.16433145 -0.016481707 0.12805198 -0.11603071 -0.12883803 -0.2565869 -0.1549542
0.16308874 0.07311691 0.09213767 0.050840862 -0.055377197 -0.058297988 0.05119576 0.26667073
-0.11333226 0.13526878 0.20585363 0.025961865 -0.023095857 -0.10418707 0.026215116 0.08053923
-0.09016601 -0.26052076 0.06123577 0.014285085 -0.20409733 -0.030681828 -0.036959257 -0.07375141
0.063127026 0.048942234 -0.03145706 -0.04663071 0.09318357 0.08195608 -0.12164908 -0.084646724
0.13106923 0.04493683 0.13577694 0.03621439 -0.11722429 -0.0056893895 -0.4108941 0.01249165
0.022793388 -0.134101 0.24598114 0.26848102 -0.081836864 -0.11590729 -0.09595348 -0.04623212
0.049974523 -0.12766984 -0.050785147 0.0030725542 0.17354673 0.08961754 0.045562506 -0.06458478
0.08774439 -0.0026043854 -0.16818012 -0.17331095 0.2452334 0.10673892 -0.1411447 -0.004293815
0.12141873 0.11508842 -0.04036645 -0.07589566 0.09599249 -0.22548668 0.12531357 0.117967926
-0.08910373 0.22421913 -0.009712514 0.061012447 0.12958758 -0.08540791 0.11412038 -0.21704154
0.16166352 -0.106560215 0.041726537 0.00035194223 0.21597128 0.20709153 0.02402096 0.04721708
-0.05482824 0.13469714 -0.079289734 0.24937251 -0.070294484 0.19788496 0.06926812 0.030387394
0.104549676 -0.13908525 -0.014000788 0.09628128 0.11796057 -0.20179491 0.14016211 0.13972977
0.23511961 0.23912935 0.021782357 -0.1362996 0.044048507 -0.07271012 0.0011224523 -0.055890143
0.05958848 -0.2134106 -0.013068334 0.06329977 0.06017435 -0.07602177 0.014383563 -0.010571319
0.0042975587 -0.032716457 -0.12967779 0.016926674 0.13931382 0.21713118 -0.13344263 -0.027532976
0.12566574 -0.059027184 -0.21877013 -0.22638221 -0.012177528 -0.07396724 0.38746834 -0.100517005
0.069350414 -0.0252845 -0.12913561 0.174361 -0.23437414 -0.07533623 -0.15066735 0.045518138
-0.10289069 0.07821034 0.29521817 -0.011003589 -0.09466015 0.17425524 -0.101434916 0.16419762
0.043740097 -0.046614036 0.1387151 0.062158257 0.097386345 0.040694438 -0.42994052 -0.027022138

mid_part.6.bias f4 [12]
00000000: ef20 0b3e 1e91 be3d 1adf 033d 13bb 7c3e
00000010: c167 1b3e da7d 723e 6229 023e 10d8 993d
00000020: 8770 01be 11ca d73d 0c22 dd3d 3454 da3d
0.13586782 0.09305023 0.032195188 0.24680738 0.15176298 0.23680821 0.12711099 0.07511914
-0.12640582 0.10536588 0.107975096 0.10660592

mid_part.7.weight f4 [12]
00000000: ed3c 8b3e c421 793f 77b8 b13e 7457 203f
00000010: 8d79 583f 93c6 763f ab85 563e 9178 513e
00000020: 0b4d 4d3f ea43 933e 34dc 343f 81fa 563f
0.2719492 0.9731715 0.34711048 0.6263344 0.8456047 0.9639675 0.20949428 0.20456149
0.80195683 0.28762752 0.70648503 0.8397599

mid_part.8.weight f4 [12, 12, 3, 3]
00000000: 73cc 0abd a83a 3abe aad3 303c e7c2 09bd
00000010: 1788 1b3e b246 48bc 46d3 8abd b2db dabd
00000020: 6385 ddbd ea4e 253e 75fd a33e 71c6 523d
00000030: 45a5 b13e dbd0 9d3e cc1f 8b3e 831e 903d
00000040: 428b 57bd 009a dabd a4d6 6c3b f861 d5bd
00000050: b5e3 d4bd b1a4 70be 316f 1b3e 8bd6 fa3c
00000060: 0078 95bd 8f81 46bc 3f32 28bd 6304 11be
00000070: ed9e a83c d7f0 ec3c 2765 b2bd b01d 873e
00000080: 6258 f5bd 5755 dd3d 7102 693d 69d5 2d3d
00000090: e292 a33d 597d 49be 74c3 abbc 4f71 c8bd
000000a0: 9302 4fbe e604 babd 658b 30bd ce77 863e
000000b0: 6c15 843d c97c 9a3c b28e 99bb 93a2 b93d
000000c0: 7b6c 07be 4f80 5bbe 4d1d 8c3e 4f43 953d
000000d0: e20a 1abe 2c46 b03d 003b aa3d 0759 b83c
000000e0: bba2 6b3d a5d4 a23d 51e4 543f 0246 a13d
000000f0: dd06 453d 584d ecbc d7d7 28be 0e60 f03c
00000100: 72ce d5bd 5bb1 f43a 148e 84bc b4b3 a43d
00000110: daf2 b7bd 9bc4 4cbd 851a 3e3e c4cd c4bd
00000120: d0eb 06bd cfa7 0c3c acf2 0f3d 5d3e 473d
00000130: cf8b 033d abeb a3bd 2ff9 1bbd b33c 7abd
00000140: 13c6 0ebe 3b8a 183e ea14 36be 1041 01be
00000150: 2d53 163e 110e a5be b890 1bbc f811 083d
00000160: cf87 8d3d 41bb 84bb e691 233c 0097 a9bc
00000170: 9d55 31be d9fb 91bd 194e 8cbe 29f6 063e
00000180: ae46 073d 7ef8 5b3e a53c bfbd a551 bdbd
00000190: ac16 aabd 9064 c83d 7bc8 18bd 7b8e b73e
000001a0: 6dc4 433e 5d23 bfbd eaa8 b2bc e737 b73d
000001b0: 0d8c c8ba 8bea 18bf f1eb 8dbd 8ede 853d
000001c0: 188e b23d 7309 2a3c d3ea 3b3c 2a46 22be
000001d0: 3444 1dbe f8f2 5f3d d2af c6bd 6664 74bd
000001e0: 4a9b 62bd 981e 8a3e c6c9 0f3e c09d 3ebe
000001f0: dff3 e2bd a3d5 183d dbb0 5dbe 1207 67bb
00000200: b60b 69bd bac0 aa3e a248 3bbe 47f8 963c
00000210: fd39 883d c073 0fbe 1fc3 c03d e0bc a5bd
00000220: 1878 133e 262c 9cbc c980 563e 7140 6bbe
00000230: f0cd cd3c db90 a53e 906e 583d db47 b7be
00000240: a63c 983c a967 64be bae9 95bd 6616 cdbe
00000250: 8eaa 4c3e 0bd7 663c 4db6 3dbe 17a9 1f3e
00000260: c072 d3bd 4a26 8abd 4096 56bd 1961 61bc
00000270: 61ca 8fbe e781 923e ecaf c3bd 857b 9b3d
00000280: 9676 6b3d c072 a13d 92f1 f73d d333 b33c
00000290: 5f38 d5bc 97f6 693d 46d2 e83d 5424 ea3d
000002a0: 39ee 963d dad9 8a3d 7b4a c23d 6584 293e
000002b0: fdfd 6e3e ec60 353d 5afc 41be 72e8 05be
000002c0: 0b71 2d3c 0695 0e3d 6214 36be dbd1 71bd
000002d0: b935 8bbd cac9 123e 67ac 8e3e bc86 82be
000002e0: 70f2 073f 14f0 ebbe 5c77 533c 87b3 b13d
000002f0: d9af 92bd 4734 b0bd 0f9e 94be a48c 303e
00000300: 69ab 1abf ff08 ad3b fffd 64bd eed8 2cbe
00000310: e32e 41bd 3036 d5bd b6ed db3d 2247 94bc
00000320: 6e0b 19be 397a ed3c f34e 8abe 042e 9fbd
00000330: 5a6f 7e3d 4e81 12be 041f 153e a8ee cc3d
00000340: b66f 463b c6d8 d23d db8c 5f3d ef89 9bbd
00000350: 505e 533d db3a 813d 5fee 9dbc 07b8 8ebd
00000360: 90f6 98be 690f 963d 2899 f0be 0171 8ebe
00000370: e4b7 4cbe 9c4f 62be cf20 bdbd b532 03be
00000380: 443a 133d 05dd 08be 75ed f5bd 5d2b f8bb
00000390: f8f9 53be 3415 39bd 587c 7fbd a8d5 6dbe
000003a0: 76fa a7bd a806 c33c 6ef3 493c a098 5fbd
000003b0: 57a1 083e 096a 8e3e 26ee 89bd 8f3e ea3c
000003c0: 611b 4dbe dfcc 273e 7b7e e0bc 94cd ed3d
000003d0: 4df9 c1be f655 9ebe 2ecd 0ebd c3d2 7d3e
000003e0: 91e5 5b3e 274e a33d 756a 9b3d ecf3 24bd
000003f0: c5af 84bd 298b b5bd e8f3 b5be 81ef 0b3e
-0.033886384 -0.18186438 0.010792652 -0.03363314 0.15188633 -0.012223886 -0.067785785 -0.10686435
-0.10816457 0.16143385 0.3202931 0.05145878 0.34696403 0.30823407 0.27172697 0.0703707
-0.05262304 -0.106739044 0.0036138678 -0.10419077 -0.10394994 -0.23500325 0.15179135 0.03061988
-0.07298279 -0.01211585 -0.041063543 -0.1416183 0.020583594 0.028923435 -0.087106995 0.26389837
-0.11979748 0.10807293 0.056887094 0.042439852 0.07987 -0.19676723 -0.020967223 -0.09787237
-0.20215826 -0.090829656 -0.043101687 0.2626328 0.064493984 0.01885833 -0.0046862 0.09064212
-0.13224976 -0.21435665 0.27366105 0.07288229 -0.15043214 0.08607134 0.083120346 0.022503389
0.05752824 0.07950715 0.83160883 0.07874681 0.04810225 -0.028845474 -0.16488586 0.029342677
-0.10439767 0.0018668579 -0.01618103 0.08042088 -0.08981867 -0.049992185 0.18564804 -0.09609559
-0.032939732 0.008584931 0.03514354 0.04864346 0.032115754 -0.080039345 -0.038079437 -0.061093044
-0.13942747 0.1489648 -0.17781416 -0.12622476 0.14680167 -0.32237294 -0.009494953 0.03322026
0.06910669 -0.0040506427 0.009983515 -0.020701885 -0.17317815 -0.07128114 -0.27403334 0.1317984
0.03302639 0.21481511 -0.09337739 -0.09244088 -0.083051056 0.09784806 -0.037300568 0.3585089
0.19117899 -0.09332917 -0.02180906 0.089462094 -0.0015300527 -0.59732884 -0.06929768 0.065365896
0.087185085 0.010378229 0.011469561 -0.15847078 -0.15358049 0.054675072 -0.09701504 -0.05966606
-0.055323876 0.26976466 0.14041814 -0.18614864 -0.11081671 0.037313115 -0.21649496 -0.0035252017
-0.056895934 0.33350164 -0.18289426 0.018428935 0.066516854 -0.14008999 0.094122164 -0.08092666
0.14401281 -0.01906402 0.20947565 -0.22973801 0.025122613 0.32337078 0.052839816 -0.3579701
0.018583607 -0.22305168 -0.073199704 -0.4005615 0.19986936 0.014089356 -0.18526573 0.15591846
-0.10324621 -0.06745584 -0.052389383 -0.01375606 -0.2808409 0.28614733 -0.09555039 0.07591919
0.05748614 0.07883215 0.12106623 0.021875298 -0.026027856 0.057119932 0.113682315 0.1143271
0.07369656 0.06779833 0.09486862 0.16554411 0.23339076 0.044281885 -0.1894392 -0.13076952
0.010586034 0.03481009 -0.17781213 -0.059038024 -0.06797356 0.14334789 0.27865908 -0.2549342
0.53104305 -0.46081603 0.012906875 0.0867682 -0.071624465 -0.08603721 -0.2902684 0.1724115
-0.604178 0.0052806134 -0.055906292 -0.16879627 -0.047163855 -0.10410726 0.10738699 -0.018100325
-0.14945766 0.028988944 -0.27013358 -0.07772449 0.062117912 -0.14307138 0.14562613 0.100064576
0.0030278987 0.102952525 0.05457769 -0.07594668 0.051603615 0.06310054 -0.019278703 -0.06968694
-0.29875612 0.07327158 -0.4699185 -0.2782059 -0.19992024 -0.22100681 -0.09234773 -0.12812312
0.03594424 -0.13365562 -0.12008182 -0.0075735287 -0.20700824 -0.045186237 -0.062374443 -0.23226035
-0.082020685 0.023806885 0.012326105 -0.054588914 0.13342796 0.27815273 -0.06734876 0.028594283
-0.20029975 0.16386746 -0.02740406 0.116114765 -0.37885514 -0.30924958 -0.034863643 0.2478743
0.21474291 0.07973891 0.075886644 -0.040271685 -0.06478838 -0.08864433 -0.35537648 0.13665582

mid_part.8.bias f4 [12]
00000000: 4d88 d83d 8abc 223d f105 9abe f6b3 08be
00000010: 28d7 a03e 17b5 2fbe f9bb d83e 2a0b 163d
00000020: bbf3 8abe 49fd 9dbe 9bda 3f3d 5bc1 90be
0.10572872 0.039730586 -0.30082658 -0.133499 0.3141415 -0.17158924 0.42330912 0.03663174
-0.27139077 -0.30857304 0.046839338 -0.2827252

mid_part.9.weight f4 [12]
00000000: d889 923f 496d 273f ce28 9d3e f245 9a3e
00000010: 6436 613e da7a ef3e 089d 013f 17f1 e43e
00000020: c49b c13e 949b 013f 9e37 8d3f dd1d e53e
1.1448317 0.6540113 0.30695194 0.3013149 0.21993405 0.46773416 0.50630236 0.44715187
0.37814152 0.5062802 1.1032598 0.44749346

mid_part.10.weight f4 [56, 12, 1, 1]
00000000: de8a da3c ac59 b8be f6c8 67bc 0af9 3bbe
00000010: b17c 26be de55 c33d 225b 073e 5d91 a2bc
00000020: d79d ba3d 39cf ff3c 7d5e f83c 2915 aabd
00000030: d297 933e f163 50be 8c9d 923e c7ad 8b3c
00000040: 1a99 0fbd 63e2 0f3d 96ab 32be b0fc 653d
00000050: 0327 093e 7c90 00be e6d1 b93d 03f3 2c3d
00000060: 5080 c33d 9510 ce3d c75f ce3e d248 8c3e
00000070: 51a5 a43b e733 cd3c 6daf cfbd a020 513e
00000080: 1247 7cbd da1f 1f3e f3cf ba3e 410f 34bd
00000090: d9f6 803e 38a9 4b3e ed85 a83e d0aa 1fbf
000000a0: 66ab ec3e c8a6 cabc ca84 d13d 0232 81be
000000b0: 8539 3d3e 3cca 943d 1e7a 263e 2294 84be
000000c0: 2268 b4be bf7b 9abe 623c 4dbe ffa9 253f
000000d0: 6233 d63b afb2 c83d dccc f83e 4f01 91be
000000e0: 5632 a3bc bec9 cf3e 059d 1fbd 453a 933c
000000f0: 77c4 9a3e 48a8 ed3d 410c 453f 2190 86be
00000100: d14d 8abe 9fb2 983e 26e1 d03e 0d2b 983e
00000110: 6b33 80bd 510a 113e 5160 8fbd 0535 e1bd
00000120: d516 31bd a511 9cbd d1e5 7f3f e520 f73e
00000130: d76b 003f ddcc 78bd 2249 b8bd be16 893e
00000140: d975 3ebe 0090 993d 1f2a bd3e 6051 d0bd
00000150: 6ae3 e23d 9c43 c83d 65c1 82bd d89e 553d
00000160: 45bb 0c3f 3f1f 503d abd9 3cbe 7723 d2be
00000170: dd1e 8abb c23f 193c aa49 893e 5e1c 6fbc
00000180: d059 193e 763b 74be 823a d03e bcd8 cfbd
00000190: 4686 a5bd 30a1 16be 005a 58bd b66f 1ebe
000001a0: 10ad 1ebe d26c 573e f98d 13bd a315 3abe
000001b0: ba35 e43e 18ec 293e 04ec fcbe 60d3 5cbe
000001c0: b525 9e3d 1a33 063e 69b6 263e 3cd8 2abc
000001d0: 78f0 533c ac8d d4bd 5a64 70be 42e3 c83b
000001e0: 6fab de3e 10bf ebbd 0e1a 243e 4e47 c63d
000001f0: ac12 823b b43c 7dbd 54db cabd 1e24 ab3d
00000200: 8e68 a03d 2a61 3fbe 893f 523d cee8 ad3d
00000210: 1543 f33e 3529 873e 6d43 2c3c 6f85 09be
00000220: a914 6c3e ae9e 673e 1094 3e3d 5253 003e
00000230: 86c4 adbd 39a5 44be fdfe 5e3e 0130 4d3e
00000240: 1c39 2bbe ff34 dc3e b847 c0bd d9e0 063e
00000250: fb2f 003e 4a44 c6bd a287 2b3e 2139 8ebd
00000260: 77c0 a1be bc3e f8be c349 c3bb c2a7 c8bd
00000270: ce8c ffbd d3f2 33be e691 d33d 991a 90be
00000280: 7a7a 453e 840e bf3e de4a afbc 5ccc e5bc
00000290: 3ff0 23be 650c a73e e479 65bc f773 7dbe
000002a0: 98f5 bcbe 17b2 26bc 1e61 c8bd 1256 633d
000002b0: adb9 eb3d 61bd c6be bd8c 013f d3e8 6c3c
000002c0: 3de4 9d3e 4d77 bc3d 1731 53be ace8 92be
000002d0: 2665 d0bc e2e3 b53e f243 84bd 687b 7f3e
000002e0: 7a73 1c3e 4d39 c13c 2daa fdbd 8cb5 cabd
000002f0: cd6b 6cbe 107b 5bbf ad3e 49bd 5aa0 ab3c
00000300: 6dfd 16bd 6544 a0bb 7bf6 823e cf22 4c3d
00000310: eb93 c3bc 87d8 73be 8a8a c33d c32b 06be
00000320: cc79 8bbd ccc5 44be 4137 42bb 28e5 913d
00000330: a0ce 35be 8046 06be 193b 1e3e 8768 a4be
00000340: faac 09be 1d1f fabd 593f c9be 114e b5bd
00000350: d290 16be b896 f8be 6e86 aa3e 92a8 013e
00000360: 76c0 61be 997a 763e 4a9f 1a3b 3cdd da3e
00000370: 90e9 6a3e 515b 21be ca09 683d 1c68 903e
00000380: 2007 a03e b1ca 84bd 5c19 523e 7ee8 4d3c
00000390: f98b 383d 4699 343d 9d6a bcbd 0d19 153e
000003a0: fb2e 423d df7e bcbb f7c4 1bbe ddf2 c8be
000003b0: aad6 253c bb12 8f3c 8443 943d 4a58 133f
000003c0: 87d9 453e b16b 86bb b891 c2be af70 1ebf
000003d0: be15 98bd 4def 49be 086b fcbd 20ab a93e
000003e0: 1b3a 28bd 7492 d23e 6cf4 4b3c 4acb ccb9
000003f0: a1bf b2bd 785e 113d 8689 c4bd 98a7 1f3c
0.026677545 -0.36005914 -0.014147034 -0.1835672 -0.16258503 0.09537862 0.13218358 -0.019844705
0.09112137 0.031226741 0.030318493 -0.08304817 0.28826767 -0.20350625 0.28635824 0.017050637
-0.03505812 0.03512801 -0.17448267 0.056149185 0.13393788 -0.12555116 0.09073238 0.04222394
0.09545958 0.100617565 0.40307447 0.27399307 0.00502459 0.025049163 -0.10140882 0.20422602
-0.061591215 0.15539494 0.36486778 -0.04395986 0.2518833 0.1988877 0.32914677 -0.62370014
0.46224517 -0.02473773 0.10230406 -0.25233465 0.18478973 0.07265136 0.16257522 -0.25894266
-0.35235697 -0.30172536 -0.20042565 0.6471252 0.006536887 0.09799706 0.48593795 -0.2832131
-0.019921463 0.40583605 -0.038968105 0.017972121 0.30228016 0.11604363 0.7697182 -0.26281837
-0.27012494 0.29823777 0.40796775 0.29720345 -0.06259807 0.14164092 -0.07000793 -0.10996441
-0.043234665 -0.07620553 0.99960047 0.48267284 0.5016455 -0.060742248 -0.08998324 0.26775163
-0.18599643 0.07498169 0.36946198 -0.10171771 0.11078532 0.097785205 -0.06384543 0.05215344
0.5497325 0.05081105 -0.18442409 -0.41042683 -0.004215105 0.00935358 0.26814014 -0.014594166
0.14975667 -0.23850808 0.40669638 -0.10148761 -0.08082251 -0.14709926 -0.052820206 -0.15472302
-0.15495706 0.21037605 -0.036024068 -0.18172316 0.4457224 0.16593969 -0.49398816 -0.21565008
0.07722036 0.13105431 0.16280521 -0.010427531 0.01293575 -0.10378584 -0.23475781 0.006130607
0.43490168 -0.11511052 0.16025564 0.09681569 0.003969511 -0.06182547 -0.09905115 0.08356498
0.07832442 -0.18689409 0.051330123 0.084916696 0.47512117 0.26398626 0.010514122 -0.13429807
0.23054756 0.22619125 0.046527922 0.12531784 -0.084847495 -0.19203652 0.21776958 0.20037843
-0.16721004 0.43009183 -0.09388679 0.1317171 0.12518303 -0.09680994 0.16750959 -0.0694449
-0.31592152 -0.48485363 -0.005959721 -0.09797622 -0.12478028 -0.17573099 0.10330562 -0.28145292
0.19285002 0.37315762 -0.021398004 -0.028051548 -0.16009615 0.32626644 -0.014006112 -0.24751268
-0.36906123 -0.010174296 -0.09784149 0.055502005 0.11510024 -0.3881636 0.50605375 0.0144598065
0.30838194 0.09202442 -0.20624195 -0.2869314 -0.025438856 0.35525423 -0.06458272 0.2494942
0.15278426 0.023586893 -0.12385974 -0.098979086 -0.23087998 -0.85734653 -0.049132038 0.020950485
-0.03686278 -0.0048909658 0.25578675 0.049837884 -0.023874244 -0.23813067 0.095479086 -0.13102631
-0.0681034 -0.19216079 -0.0029634985 0.07123786 -0.17754602 -0.13112831 0.15452231 -0.32110998
-0.13444892 -0.12212966 -0.39306143 -0.088527806 -0.14703682 -0.4855249 0.33305687 0.1266196
-0.22046074 0.24070205 0.002359348 0.42746913 0.2294066 -0.1575749 0.05664996 0.2820443
0.31255436 -0.06483973 0.20517486 0.0125676375 0.045055363 0.044091485 -0.09200022 0.14560337
0.047408085 -0.005752429 -0.15211855 -0.3924779 0.010121981 0.017464986 0.0723944 0.57556593
0.19321261 -0.0041021933 -0.380018 -0.6189069 -0.07426022 -0.19720192 -0.12325102 0.3313837
-0.04107104 0.4112736 0.012448411 -0.00039061374 -0.087279566 0.035490483 -0.09596543 0.009744547
