weights/fsrcnn_x4.pth (torch_old, 54998 bytes, 22 tensors)

first_part.0.weight f4 [56, 1, 5, 5]
0	0xbd3a137d	-0.04542874
1	0x3d987954	0.074450165
2	0xbd611d82	-0.05495978
3	0xbbb3a6ee	-0.005482546
4	0x3b9003c1	0.0043949788
5	0x3ca9c7b1	0.020725103
6	0x3c82b022	0.015953127
7	0xbd23a7f9	-0.039955113
8	0xb8b9355c	-8.8314264e-05
9	0x3d123558	0.035695404
10	0x3ce8ed7f	0.02843356
11	0xbd287a6c	-0.041132376
12	0x3f580629	0.843844
13	0xbdbf8453	-0.09351411
14	0xbd4b1343	-0.049578916
15	0xbd4275ef	-0.04747575
16	0x3aff7e9c	0.0019492689
17	0xbd804c94	-0.06264606
18	0xbb328296	-0.002723848
19	0xbd7531fe	-0.05986213
20	0xbb8990a0	-0.004198149
21	0xbccf12f0	-0.025277585
22	0x3da49b6b	0.08037456
23	0xbd99a5df	-0.075023405
24	0x3cf86815	0.030323068
25	0xba5fd830	-0.00085389894
26	0x3dbab6e2	0.091169134
27	0xbdfcae41	-0.12337924
28	0x3d446a54	0.047952965
29	0xbca29a65	-0.019849012
30	0x3d56eec3	0.052473795
31	0xbd75a485	-0.05997135
32	0xbc9f84d3	-0.019472515
33	0x3d1613b6	0.03663989
34	0x3ce176bf	0.027522443
35	0xbd82164d	-0.0635191
36	0x3e005522	0.12532476
37	0xbdb62010	-0.08892834
38	0x3cd94fc0	0.026527286
39	0xbdad56b5	-0.08463804
40	0xbc82f386	-0.015985262
41	0xbe0bf63a	-0.13668147
42	0x3e0b6083	0.13611035
43	0xbdfe2733	-0.124098204
44	0x3e130c73	0.14360218
45	0x3db02834	0.08601418
46	0xb945e322	-0.00018871998
47	0xbdf16159	-0.11786146
48	0x3d40228a	0.04690794
49	0x3d02b834	0.03191395
50	0x3cb4840d	0.022035623
51	0xbd1035af	-0.035207447
52	0xbdb79cad	-0.089654304
53	0x3d36ab28	0.04459682
54	0x3cf80e55	0.030280272
55	0x3c219aef	0.009863599
56	0x3c72ab79	0.01481139
57	0xbbbcb7b3	-0.0057592033
58	0xbe198ea8	-0.14995825
59	0x3d51fd09	0.051266704
60	0xbe0fa411	-0.1402743
61	0x3f32c423	0.6983053
62	0xbf36b4ec	-0.71369815
63	0x3e957fca	0.29199058
64	0xbddf3599	-0.10898895
65	0x3c966604	0.018359192
66	0xbec7a1ae	-0.3899054
67	0x3e8b7ba1	0.2724276
68	0xbd27f46a	-0.041004576
69	0x3d92de7d	0.071713425
70	0x3c80f14e	0.015740063
71	0xbd3deeb0	-0.04637021
72	0xbe55e738	-0.20888984
73	0x3e11e12d	0.14246054
74	0xbd8f67b2	-0.070022
75	0xbc465916	-0.012106201
76	0xbd881d26	-0.066461846
77	0x3d10c517	0.03534421
78	0x3d18fa5b	0.037348133
79	0xbc7578f0	-0.014982447
80	0xbd68a6ba	-0.056799628
81	0x3de8d2f3	0.1136836
82	0xbe88515a	-0.26624566
83	0x3dd4673a	0.103712514
84	0xbc1369d9	-0.008997404
85	0x3d81ecc9	0.06343991
86	0xbe0e9dcd	-0.13927384
87	0xc065ba5d	-3.5894997
88	0x3df1e01b	0.11810323
89	0xbdfc4996	-0.12318723
90	0x3e062398	0.13099515
91	0x3ca4615e	0.02006596
92	0xbe3ddedc	-0.18542045
93	0xbcb8bd41	-0.02255118
94	0x3e095422	0.13411
95	0xbd6abc8b	-0.057308715
96	0x3ca6e0d5	0.02037088
97	0x3ddc1ba9	0.10747463
98	0x3c0c4a3e	0.008562623
99	0xbd25a50e	-0.04044061
100	0xbd198381	-0.037478928
101	0x3d8717d2	0.0659634
102	0x3ebc3a6b	0.3676332
103	0xbe97b4dd	-0.29630175
104	0xbdbae225	-0.09125165
105	0x3e051e07	0.12999736
106	0xbe37defd	-0.17956157
107	0xbe08517c	-0.13312334
108	0x3ea5aa9d	0.3235673
109	0xbc40325f	-0.011730759
110	0x39b48dd7	0.00034437954
111	0xbeb56f6f	-0.3543658
112	0x3ef0fdf4	0.4706875
113	0xbe0e1257	-0.13874184
114	0xb9cb4357	-0.0003876935
115	0x3dad9081	0.084748276
116	0x3e654922	0.22391179
117	0xbf11da3d	-0.5697363
118	0xbd25cd29	-0.04047886
119	0x3e5f45ee	0.2180402
120	0xbda88a0d	-0.08229456
121	0x3dbe2efc	0.09286305
122	0x3eb7a2ad	0.358663
123	0xbe6eb4b5	-0.23311122
124	0x3b63c80e	0.0034756693
125	0xbcbc9d80	-0.02302432
126	0x3e514244	0.20435435
127	0xbe085f82	-0.13317683
128	0xbdd4f44c	-0.103981584
129	0x3e79aefc	0.24383157
130	0x3d40d992	0.04708249
131	0xbd8c16e3	-0.06840303
132	0xbe6af739	-0.2294587
133	0xbe9e7034	-0.3094498
134	0x3dd83dc0	0.10558653
135	0x3b8fd391	0.0043892344
136	0xbd87992e	-0.066210136
137	0xbe90f51d	-0.28312007
138	0xbe322d5d	-0.17400117
139	0xbbc92dcf	-0.006139494
140	0xbd94dd15	-0.072687306
141	0xbde54041	-0.11193896
142	0x3d0b1b2f	0.03396147
143	0x3e84fd15	0.25974336
144	0xbe63fcc3	-0.2226439
145	0xbdd32df8	-0.10311502
146	0x3d41a4e7	0.047276404
147	0x3e02bf2b	0.12768237
148	0x3e2728d9	0.16324176
149	0xbdc0770b	-0.09397706
150	0x3c151c96	0.009101054
151	0xbe03be74	-0.12865621
152	0x3e2c3d7e	0.16820332
153	0xbdcb4f79	-0.099272676
154	0x3bd7b846	0.0065832464
155	0xbc81df7c	-0.015853636
156	0x3e85e27b	0.26149353
157	0x3f3fe8da	0.7496468
158	0x3eebfc55	0.46090952
159	0x3dd3f454	0.10349336
160	0xbe029ed1	-0.12755896
161	0xbe9b70eb	-0.30359587
162	0xbf5ebf94	-0.87011075
163	0xbf052c52	-0.5202075
164	0xbe3e4268	-0.1858002
165	0x3e1591cd	0.146064
166	0x3dccd406	0.10001378
167	0xbe6461a7	-0.22302876
168	0x3e530de9	0.20610775
169	0xbcdf1e0a	-0.027236003
170	0xbd969332	-0.07352294
171	0x3c4fde31	0.012687252
172	0x3cfafa85	0.030637035
173	0xbda0c5b2	-0.078502074
174	0xba18013a	-0.00057985226
175	0x3e381dec	0.17980164
176	0xbe8e69d8	-0.27815127
177	0xbe49ac80	-0.1969471
178	0x3da37c28	0.07982665
179	0xbd8c7839	-0.06858868
180	0x3cb94b21	0.022618832
181	0xbe940dca	-0.2891677
182	0xbd1138ab	-0.035454433
183	0x3ed54d4a	0.4166053
184	0xbe9389a3	-0.28815946
185	0x3ba82889	0.0051317853
186	0x3daf2866	0.08552627
187	0x3e94801d	0.29003993
188	0xbf10b8e6	-0.5653213
189	0xbda54ef7	-0.08071702
190	0x3dd5a0a2	0.10431029
191	0xbc69ce69	-0.014270403
192	0xbf096db7	-0.53683037
193	0x3e2a9116	0.16656908
194	0x3d7156c2	0.05892063
195	0xbd574b19	-0.052561853
196	0xbe749296	-0.23884043
197	0x3e5f2d5a	0.21794644
198	0x3d97d732	0.07414092
199	0x3c6180b3	0.013763594
200	0x3d3f6d63	0.04673518
201	0x3e0ab75a	0.13546506
202	0xbc382e22	-0.011241468
203	0xbd0998ac	-0.033592865
204	0xbd7bc51b	-0.06146727
205	0xbd903b86	-0.07042603
206	0xbe35e3d7	-0.17762695
207	0x3f254152	0.64552796
208	0xbdb0f46c	-0.0864037
209	0xbd4fd388	-0.05073884
210	0x3d666ff8	0.056259125
211	0x3e06d0d5	0.131656
212	0xbf176a6d	-0.5914677
213	0x3e98ec60	0.2986784
214	0x3e48ac64	0.19597012
215	0x3d219bb9	0.03945515
216	0xbe4f2605	-0.20229347
217	0x3eed172d	0.46306744
218	0xbe2c099e	-0.16800544
219	0xbd42c9c6	-0.047555707
220	0xbcf22562	-0.029558841
221	0x3dbbe93c	0.09175345
222	0xbe177ca1	-0.14793636
223	0x3d8e96be	0.069623455
224	0xbdb2c8c5	-0.087297
225	0xbb791449	-0.0038006476
226	0xbd491ccf	-0.04909974
227	0xbda8799c	-0.0822632
228	0x3d2416ff	0.040060993
229	0xbdd479ed	-0.10374818
230	0xbc8118a2	-0.015758816
231	0x3d0e260a	0.034704246
232	0xbe1e61fe	-0.15467069
233	0xbd4e4dfa	-0.050367333
234	0x3c73e671	0.0148864845
235	0xbdbc2ef0	-0.0918864
236	0x3d0f8139	0.035035346
237	0x3e473e91	0.19457461
238	0x3d17c00b	0.03704838
239	0xbdfe9c4c	-0.12432155
240	0x3dc2102e	0.09475742
241	0xbd969571	-0.073527224
242	0xbdd2dd2a	-0.1029609
243	0xbc5d810b	-0.013519536
244	0x3e052262	0.13001397
245	0xbd443370	-0.047900617
246	0xbd2224c3	-0.03958584
247	0x3cefbbd7	0.029264374
248	0xbdc3f46e	-0.09568106
249	0xbdbcc0d6	-0.09216468
250	0x3ddab3d8	0.10678834
251	0xbda15e35	-0.07879297
252	0xbbaff49b	-0.0053697354
253	0x3dbfa34c	0.09357318
254	0xbdfada38	-0.12248653
255	0xbe2309f5	-0.15921767

first_part.0.bias f4 [56]
0	0xbe5b091a	-0.2139019
1	0xbe3d12b4	-0.18464166
2	0x3da29cbd	0.07940052
3	0x3ef20c93	0.47275218
4	0x396374c4	0.00021691906
5	0xbe16ad4e	-0.14714548
6	0xbe03c0c9	-0.1286651
7	0xbe3b8c47	-0.1831523
8	0xbe91498b	-0.2837642
9	0xbe59f95d	-0.21286531
10	0x3dfdbcb2	0.123895064
11	0x3dafdf36	0.08587496
12	0xbdf55737	-0.119795255
13	0xbd61dfc7	-0.05514505
14	0x3e839e72	0.25706822
15	0xbe7f6b0a	-0.24943176
16	0x3e3a1358	0.18171442
17	0x3d28ab26	0.041178845
18	0xbdfd706c	-0.123749584
19	0xbde09c63	-0.109673284
20	0x3e92625c	0.28590667
21	0xbe6c8137	-0.23096167
22	0xbddc3443	-0.10752156
23	0xbf10efd8	-0.5661597
24	0xbe8adf6e	-0.27123588
25	0xbe7dc99a	-0.24783936
26	0x3c697444	0.014248911
27	0xbf22189c	-0.633188
28	0xbdcc1054	-0.09964052
29	0xbdccec14	-0.10005966
30	0x3e80434e	0.2505135
31	0x3e3e7978	0.18601024
32	0x3db7e132	0.089784995
33	0xbda67cf6	-0.08129303
34	0x3e298122	0.16553167
35	0xbe187534	-0.1488846
36	0xbe15e57e	-0.14638326
37	0xbab04374	-0.0013447837
38	0xbee6a193	-0.45045146
39	0x3bc5302c	0.0060177054
40	0x3d1c0cd3	0.038098168
41	0xbd0539c1	-0.03252578
42	0xbe4bbf08	-0.19897091
43	0xbe08f486	-0.13374528
44	0x3e9be640	0.30449104
45	0xbe854f59	-0.260371
46	0x3e72c688	0.23708546
47	0xbea0d0c1	-0.31409267
48	0xbe7f428f	-0.24927734
49	0xbe0ba696	-0.13637766
50	0xbe1a33ef	-0.15058874
51	0xbe1a8e50	-0.1509335
52	0xbe5ba86e	-0.2145097
53	0xbf246ad5	-0.6422551
54	0x3e40b89e	0.18820426
55	0x3e3cd91c	0.18442196

first_part.1.weight f4 [56]
0	0x3fce145d	1.6099964
1	0xbb098036	-0.002098096
2	0x3f1ca222	0.61184895
3	0xbb630f8a	-0.0034646713
4	0x3f4d31a7	0.8015389
5	0xbb40eecf	-0.0029439216
6	0xbe0fd4ec	-0.14046067
7	0xbb0c98c8	-0.002145337
8	0x3f28df8a	0.65966094
9	0xbb83ad1b	-0.0040184385
10	0x403dcacb	2.9655025
11	0xbfd95377	-1.6978596
12	0x3fd65fc6	1.6747978
13	0x3b0adafb	0.0021187651
14	0xbc617cb9	-0.013762646
15	0x3f6d8274	0.9277718
16	0xba4d25a3	-0.00078257377
17	0xbe7c9643	-0.24666695
18	0x3f934010	1.1503925
19	0xbdc1e9df	-0.094684355
20	0x3f2fa0f9	0.68605
21	0xbb9d320f	-0.004797227
22	0xbc0aa90d	-0.008463156
23	0xbd3d5447	-0.04622295
24	0x3f4d63fa	0.8023068
25	0xbabd7ab7	-0.0014456128
26	0xbd8b10f3	-0.06790342
27	0x3c1f06be	0.009706197
28	0x3b0b93a7	0.0021297724
29	0xbbb88a21	-0.0056317006
30	0x3f83e0a5	1.0302931
31	0xbdbec021	-0.093139894
32	0xbf25a05b	-0.6469781
33	0xbda3b67f	-0.07993793
34	0xbf9654af	-1.1744593
35	0xbc7df558	-0.015500389
36	0xba28118e	-0.0006411307
37	0x3fa14470	1.259901
38	0xbbe934bc	-0.007116882
39	0xba8bb2a7	-0.0010658101
40	0xbde29bad	-0.11064849
41	0xbb45b0a3	-0.0030165098
42	0xbb0c3ccb	-0.002139854
43	0xbc841636	-0.016123872
44	0x3bb86855	0.0056276717
45	0xbc6f0cae	-0.014590425
46	0xbe0b3931	-0.13596036
47	0x3f611185	0.8791736
48	0x3bec0675	0.007202918
49	0xbe3d0922	-0.18460515
50	0x3adbf3b1	0.0016781
51	0x3a30604c	0.00067282165
52	0x3f93c2a4	1.1543775
53	0x3bfc7902	0.007704855
54	0xbb3b0cdd	-0.0028541603
55	0x3d6feede	0.05857741

mid_part.0.weight f4 [12, 56, 1, 1]
0	0x3c0cfc1f	0.008605032
1	0xbd16d0ec	-0.036820337
2	0xbe4891dd	-0.19586892
3	0xbeb5fa63	-0.35542592
4	0x3c4611e5	0.012089227
5	0x3d47bc3f	0.04876351
6	0xbddb49d7	-0.10707443
7	0xbd9c9d7b	-0.076472245
8	0x3e17218f	0.14758895
9	0xbc06d2a8	-0.008228935
10	0xbbfc72db	-0.0077041215
11	0xbd5a59b4	-0.053308204
12	0x3e007b2d	0.12546988
13	0x3c950acb	0.018193623
14	0xbcb3ae32	-0.021933649
15	0x3e7b3c80	0.24534798
16	0x3cf514c4	0.029917128
17	0x3de5c60a	0.112194136
18	0x3e4f5a26	0.20249233
19	0xbd83360f	-0.06406795
20	0xbcd91fd9	-0.026504444
21	0x3d839027	0.06423979
22	0xbe30566d	-0.17220469
23	0x3ca94635	0.02066336
24	0xbee499d7	-0.4464862
25	0x3d34c211	0.04413039
26	0x3d358057	0.044311848
27	0x3e42fffa	0.1904296
28	0x3ce354e7	0.027750446
29	0x3c2d0a3c	0.010561522
30	0x3e9d96b9	0.30779055
31	0xbe8d5419	-0.27603224
32	0xbe904f63	-0.28185567
33	0xbdc48be3	-0.09596994
34	0x3deab9b8	0.11461204
35	0xbea2d7b6	-0.318052
36	0x3cb3bd4c	0.02194085
37	0x3e0e105c	0.13873428
38	0x3e89db95	0.2692534
39	0xbe0e4c2a	-0.13896242
40	0xbeb5825f	-0.35451028
41	0x3d353f88	0.04425004
42	0x3ccbd95b	0.024883917
43	0xbe9cea7d	-0.3064765
44	0x3d466ab1	0.048441593
45	0x3d190814	0.03736122
46	0xbe30c2ea	-0.17261854
47	0xbd4da0ad	-0.05020206
48	0x3e07bd37	0.13255773
49	0xbd7164a4	-0.05893387
50	0x3dc223bf	0.09479474
51	0xbe94b5fa	-0.29045087
52	0x3de980fa	0.114015535
53	0xbf2a6909	-0.6656652
54	0x3d13a195	0.03604277
55	0xbe1f97e8	-0.15585291
56	0xbce15544	-0.027506478
57	0x3b1a94d3	0.0023587241
58	0x3e674748	0.22585785
59	0x3f5f56c9	0.872418
60	0xbe51d890	-0.20492768
61	0xbd637757	-0.055533733
62	0x3e0916af	0.1338756
63	0x3dccb674	0.09995738
64	0x3e6b9dd3	0.23009424
65	0xbc53af7c	-0.012920257
66	0xbdc2f68c	-0.09519681
67	0x3e3c6568	0.18398058
68	0xbf072212	-0.5278636
69	0x3c8bae75	0.017050961
70	0x3d73b9d8	0.059503406
71	0xbdf31cdc	-0.11870739
72	0x3e19e0be	0.15027139
73	0xbe4f8875	-0.20266898
74	0xbe232566	-0.15932235
75	0x3f166865	0.58753043
76	0x3deb4a4a	0.11488779
77	0xbe276398	-0.16346586
78	0x3e68216f	0.22669004
79	0x3f086e58	0.5329337
80	0x3e03c955	0.12869771
81	0xbdf7dd32	-0.121027365
82	0x3f04b160	0.5183315
83	0xbe237263	-0.15961604
84	0x3d0eb80c	0.03484349
85	0xbce4fcb9	-0.027952539
86	0x3f0bbe2b	0.5458705
87	0x3d16a471	0.036777917
88	0x3e0c462f	0.13698648
89	0x3e8d4580	0.27592087
90	0x3e034bb8	0.12821853
91	0xbe5a1971	-0.21298768
92	0xbc38cd45	-0.011279409
93	0xbc9f533d	-0.01944887
94	0x3f14c423	0.5811178
95	0xbd4701b4	-0.04858561
96	0x3e4ce72e	0.20010063
97	0xbe0796af	-0.13241075
98	0x3e260327	0.1621214
99	0x3df87bc8	0.121329844
100	0x3d0dd4c8	0.034626752
101	0x3e33df59	0.17565669
102	0x3e200515	0.15626939
103	0x3e1f914d	0.15582772
104	0x3ed416bf	0.41423604
105	0x3cade5be	0.021227714
106	0xbd11a279	-0.035555337
107	0xbb056929	-0.002035687
108	0xbf224863	-0.63391703
109	0x3d6e35e8	0.058156878
110	0x3e4069a8	0.18790305
111	0x3cec4056	0.028839272
112	0xbca8a73b	-0.020587554
113	0xbd1f3d93	-0.03887708
114	0xbd84a1c6	-0.06476168
115	0x3ebfdece	0.37474674
116	0xbd953f34	-0.07287446
117	0xbc200009	-0.009765633
118	0xbeb1010a	-0.34571105
119	0x3c06ad8c	0.008220088
120	0x3d8d37e1	0.06895424
121	0xbc6e801e	-0.014556913
122	0x3d911095	0.07083241
123	0x3bcbbc7f	0.006217539
124	0xbe273ff1	-0.16332985
125	0xbcfad064	-0.030616947
126	0x3e469423	0.19392447
127	0x3d97b863	0.07408216
128	0xbe39dd19	-0.18150748
129	0xbe55941a	-0.20857278
130	0xbf071170	-0.5276098
131	0xbea7b707	-0.32756826
132	0x3c9c0d0d	0.019049192
133	0x3c88fc75	0.016721943
134	0x3e407822	0.18795827
135	0xbdc8bc7e	-0.09801577
136	0x3ebf2043	0.373293
137	0x3d7e895b	0.06214271
138	0x3e51c0bf	0.20483683
139	0x3d7cd8c9	0.06173018
140	0xbc7ebfe0	-0.015548676
141	0x3d1d9364	0.03847064
142	0x3efe8ba0	0.497159
143	0x3b9213c2	0.0044579217
144	0xbd2867c2	-0.041114576
145	0x3b654de4	0.0034989053
146	0x3c7cd593	0.015431779
147	0x3c04d562	0.008107515
148	0x3b576ca9	0.0032871163
149	0x3d50c25a	0.050966598
150	0xbea3c121	-0.31983283
151	0xbe0942af	-0.13404344
152	0x3dc509d8	0.09621018
153	0xbd119fb0	-0.03555268
154	0x3cd07a48	0.025448933
155	0x3d6974e6	0.05699625
156	0x3d4ee9a8	0.0505158
157	0xbc984a53	-0.018590128
158	0xb9c444fb	-0.00037435428
159	0x3e17b58a	0.14815345
160	0xbdc39787	-0.09550386
161	0xbed9479a	-0.4243744
162	0x3ced3264	0.028954692
163	0x3d94346d	0.07236562
164	0x3da5e056	0.08099429
165	0xbe15586d	-0.14584513
166	0x3e0e4595	0.13893731
167	0xbd74237b	-0.05960415
168	0x3d4d1423	0.050068032
169	0xbd1b637f	-0.037936684
170	0xbe9bacfb	-0.3040541
171	0x3f0aea19	0.54263455
172	0x3e6ed23e	0.23322389
173	0xbd9a9d5f	-0.075495474
174	0xbeba3c5c	-0.36374176
175	0x3f2d6fc6	0.6774868
176	0xbed399bb	-0.41328225
177	0xbe056a5c	-0.13028854
178	0xbe359d07	-0.17735682
179	0xbf142a47	-0.5787701
180	0x3e439a28	0.19101775
181	0x3db8c1c6	0.09021334
182	0x3f0dc0e1	0.55372435
183	0x3e9ac1fc	0.30226123
184	0xbf829981	-1.0203096
185	0x3f257b2c	0.6464107
186	0xbec78173	-0.3896595
187	0x3ea4333a	0.32070333
188	0x3ea8470e	0.3286671
189	0xbdf09fea	-0.11749251
190	0xbeb5f49d	-0.35538188
191	0x3d53d2d0	0.05171472
192	0xbe64f9fc	-0.22360986
193	0xbe1e6e8f	-0.15471862
194	0xbe9a7012	-0.30163628
195	0x3ce16ad6	0.027516764
196	0xbd49138c	-0.049090907
197	0xbd8e744d	-0.06955776
198	0xbe7386fc	-0.23781961
199	0xbf966873	-1.1750625
200	0xbdb1e3e6	-0.08686046
201	0xbe95ef19	-0.2928398
202	0xbdadd844	-0.08488515
203	0xbeb5c342	-0.35500532
204	0xbc9d381d	-0.019191796
205	0xbea26050	-0.31714106
206	0xbf8f0b9d	-1.1175419
207	0xbfade460	-1.358532
208	0xbeae109e	-0.33997053
209	0xbdda24b0	-0.10651529
210	0x3b80af80	0.003927171
211	0x3e5fa10f	0.21838783
212	0xbd610e62	-0.054945357
213	0x3c90d14a	0.017677922
214	0xbca7d160	-0.02048558
215	0x3ea79a53	0.32734928
216	0xbe8e2d7f	-0.27769086
217	0xbf1e2d42	-0.6178781
218	0x3d24bb8c	0.04021792
219	0xbe0ec2c4	-0.13941485
220	0x3e7c3447	0.24629317
221	0x3d7add08	0.061245948
222	0xbe8e9990	-0.27851534
223	0xbf015191	-0.50515085
224	0x3e642988	0.22281468
225	0xbc698276	-0.014252296
226	0xbdc19682	-0.09452535
227	0xbc8f7727	-0.017512871
228	0x3c9beb62	0.019033138
229	0x3ca4349d	0.02004462
230	0xbdd8df0a	-0.10589416
231	0xbdf7c1c4	-0.12097505
232	0xbe78869e	-0.24270102
233	0x3bd1b69d	0.006399943
234	0x3d2b153d	0.0417683
235	0xba3e4f87	-0.00072597753
236	0x3ea4a8d6	0.32160062
237	0x3c290e22	0.010318311
238	0xbd816649	-0.063183375
239	0x3eaef86d	0.3417391
240	0xbe45415e	-0.19263217
241	0x3dd078d8	0.10179299
242	0xbd720697	-0.059088316
243	0xbd342ef8	-0.043990105
244	0xbdc412a5	-0.09573869
245	0xbcee4739	-0.029086696
246	0x3db24335	0.08704225
247	0x3d0d388b	0.03447775
248	0x3e8d2059	0.27563742
249	0xbc901070	-0.017585963
250	0x3e797df3	0.24364452
251	0x3dc2dcd9	0.095147796
252	0xbc575b83	-0.013144377
253	0x3956de89	0.00020491531
254	0xbe52b10b	-0.20575349
255	0xbd2219f8	-0.039575547

mid_part.0.bias f4 [12]
0	0x3d70f96b	0.058831614
1	0xbeb9633b	-0.3620852
2	0x3d842733	0.06452789
3	0xbe9307dd	-0.28716937
4	0xbe2bf632	-0.16793135
5	0xbe6e7564	-0.23286968
6	0xbe50fb2f	-0.20408319
7	0xbddbcbae	-0.10732208
8	0xbd991c54	-0.07476106
9	0xbe457866	-0.1928421
10	0x3d10cb34	0.03535004
11	0x3c9a1469	0.01880856

mid_part.1.weight f4 [12]
0	0x3eedebbf	0.46468922
1	0xbc424924	-0.011858258
2	0x3e42fe08	0.19042218
3	0x3d675245	0.056474943
4	0x3f81ea85	1.0149695
5	0x3f7f42b3	0.9971115
6	0xbde4834f	-0.111578576
7	0x3f79e3f3	0.9761345
8	0x3f438c1e	0.76385677
9	0x3f78ee7b	0.9723889
10	0x3f1e0a0f	0.617341
11	0x3d609e0b	0.05483822

mid_part.2.weight f4 [12, 12, 3, 3]
0	0x3e222e51	0.15837981
1	0x3e3db363	0.18525462
2	0xbdf1802b	-0.11792024
3	0xbd7e5df7	-0.06210133
4	0xbe863808	-0.26214623
5	0x3ee00a71	0.43757966
6	0xbdf2ab0e	-0.11849032
7	0xbd03d256	-0.032183014
8	0xbe198cdd	-0.14995141
9	0xbe15694c	-0.14590949
10	0xbe908e3d	-0.2823352
11	0xbe1f3bf8	-0.1555022
12	0x3dd18918	0.10231227
13	0x3f463fc3	0.7744104
14	0x3d17fc47	0.037105825
15	0xbd7e505c	-0.062088355
16	0x3d054055	0.032532055
17	0xbe279dd9	-0.16368808
18	0xbd22b15d	-0.039719928
19	0xbedb416c	-0.4282335
20	0xbdac19e4	-0.08403376
21	0x3e764f27	0.24053632
22	0x3f0de0da	0.5542122
23	0x3d59594a	0.05306367
24	0xbde922f9	-0.11383624
25	0x3d4e3e8d	0.05035262
26	0xbe853bbd	-0.2602214
27	0xbea9a21e	-0.33131498
28	0x3e63b682	0.2223759
29	0x3f04ac5c	0.518255
30	0xbe5991ee	-0.21247074
31	0xbf07a5c1	-0.52987295
32	0x3f51f4e0	0.82014275
33	0xbdaa1268	-0.08304292
34	0x3e133ebc	0.143794
35	0x3eb4ee07	0.3533785
36	0xbb4c2894	-0.0031152116
37	0xbe640d4e	-0.222707
38	0xbd10a4b3	-0.03531332
39	0x3e68289b	0.2267174
40	0x3e1cac4f	0.15300106
41	0xbe92831c	-0.28615654
42	0xbc6cc113	-0.014450329
43	0x3e806b91	0.25082067
44	0xbc944da0	-0.01810342
45	0x3b9d31be	0.0047971895
46	0xbe72ece3	-0.23723178
47	0xbc653f09	-0.0139920795
48	0x3e2b4d8f	0.16728805
49	0x3ebd12fc	0.36928546
50	0xbead04c4	-0.33792698
51	0x3d3e0ce5	0.046399016
52	0x3e66e4ac	0.22548169
53	0x3d1826c2	0.037146337
54	0xbe67295b	-0.2257437
55	0xbe997da4	-0.2997867
56	0x3dddfbc9	0.1083904
57	0xbe4b3306	-0.19843683
58	0x3ea27f46	0.31737727
59	0x3dcb2d5a	0.099207595
60	0xbdfb2140	-0.12262201
61	0x3e11f4bd	0.14253516
62	0xbdb647d5	-0.089004196
63	0xbd82fc9f	-0.0639584
64	0xbd81e507	-0.063425116
65	0x3c81343f	0.015771983
66	0x3dfd1c68	0.12358934
67	0x3d65cb91	0.05610234
68	0x3d2ad13a	0.04170344
69	0xbc65a159	-0.014015519
70	0x3b34af81	0.0027570429
71	0xbe2ae83f	-0.16690157
72	0xbcec2c46	-0.028829705
73	0x3da621ec	0.08111939
74	0xbbcf08b2	-0.0063181752
75	0x3b5e050f	0.0033877527
76	0xbdd7350d	-0.105081655
77	0x3d14b877	0.036308732
78	0x3e383dfe	0.17992398
79	0x3d67cf3c	0.05659412
80	0xbe27e638	-0.16396415
81	0x3d1450c0	0.03620982
82	0x3d74c81b	0.059761148
83	0xbbf80057	-0.0075684
84	0x3c246596	0.010033986
85	0x3d096bc7	0.03355005
86	0xbd6fd07a	-0.058548428
87	0x3db99abd	0.09062717
88	0x3e1bc2bb	0.15211003
89	0xbbf8f147	-0.007597122
90	0x3cf42f73	0.029807782
91	0xbe8bd6a6	-0.273122
92	0x3ddbcb09	0.10732085
93	0x3dabb104	0.083833724
94	0x3d48e0e7	0.04904261
95	0x3e07f8b8	0.13278472
96	0xbe74d029	-0.23907532
97	0xbda8b8bc	-0.0823836
98	0x3dc2c418	0.09510058
99	0x3eb282c0	0.3486538
100	0xbe317562	-0.17329934
101	0x3e94500a	0.28967315
102	0xbf38ec39	-0.7223545
103	0x3bdab821	0.006674782
104	0x3e8e8abf	0.2784023
105	0xbe957b13	-0.2919546
106	0x3e3514d5	0.17683728
107	0xbc9d390d	-0.019192243
108	0x3e002ead	0.12517805
109	0xbcb43f53	-0.022002852
110	0xbdb31021	-0.08743311
111	0xbeae5ba2	-0.34054285
112	0x3cd802dc	0.026368551
113	0x3e60941f	0.21931504
114	0x3b970c3e	0.0046096137
115	0x3d9a2848	0.07527214
116	0xbe098b72	-0.134321
117	0x3e0d3adc	0.13791984
118	0x3e1d5003	0.15362553
119	0x3e057260	0.13031912
120	0x3e3c96ca	0.18416896
121	0xbf5a4c19	-0.85272366
122	0xbe9bfd4d	-0.3046669
123	0x3d5e76b2	0.054312415
124	0x3e52d8a8	0.2059046
125	0x3f348038	0.70508146
126	0xbe5ebee5	-0.21752508
127	0x3f20fe77	0.6288828
128	0xbe3bb033	-0.18328933
129	0x3e83a45f	0.25711343
130	0xbe8864fe	-0.2663955
131	0x3e2b4880	0.16726875
132	0xbddec34f	-0.10877096
133	0xbf3108fd	-0.6915434
134	0x3e983e88	0.29735208
135	0xbdcc697d	-0.09981058
136	0x3f0c950a	0.54914916
137	0x3f19828d	0.5996483
138	0xbea54013	-0.32275447
139	0x3f4f46f1	0.80967623
140	0xbf16cd63	-0.58907145
141	0x3e8be8ea	0.27326137
142	0x3e5e1b96	0.2169021
143	0xbf4db72b	-0.8035762
144	0x3e1dd66c	0.15413827
145	0xbed11d6b	-0.40842757
146	0x3c310199	0.010803604
147	0xbea45a37	-0.32100078
148	0xbe268584	-0.1626187
149	0x3ee2268c	0.44170034
150	0xbe02b369	-0.12763752
151	0x3f1b77e4	0.60729814
152	0xbe047bc1	-0.12937833
153	0x3defa43e	0.117012486
154	0x3e1492d3	0.14509134
155	0x3dbca256	0.092106506
156	0xbe1c1d55	-0.15245564
157	0xbe41aeca	-0.18914333
158	0x3e4c9b93	0.19981222
159	0x3d73a5c0	0.059484243
160	0xbea41120	-0.32044315
161	0xbdbf9efe	-0.09356497
162	0xbde16705	-0.110059775
163	0xbeabd299	-0.3355911
164	0xbc34ab06	-0.011027103
165	0xbf2a7ac5	-0.6659358
166	0xbe83a63b	-0.2571276
167	0xbed329af	-0.4124274
168	0xbea7ad95	-0.3274962
169	0x3e8221a6	0.25416297
170	0xbf028608	-0.50985765
171	0x3f2a4f40	0.66527176
172	0xbf38a6f9	-0.7212978
173	0xbe846dc8	-0.25865006
174	0xbe39e9a0	-0.18155527
175	0xbe4fadfa	-0.2028121
176	0x3ed3aa94	0.41341078
177	0xbe72b142	-0.23700431
178	0x3efb922f	0.49134967
179	0xbd8ea0f2	-0.06964292
180	0xbe5f89eb	-0.21829955
181	0xbd867204	-0.065647155
182	0xbd52e48b	-0.051487487
183	0xbea2761b	-0.31730732
184	0xbdcdac3a	-0.10042615
185	0x3ea5ae29	0.32359436
186	0x3e3877bb	0.18014424
187	0x3f0524a7	0.5200905
188	0xbdc9eaba	-0.09859224
189	0x3d978867	0.073990636
190	0xbe3426e2	-0.17592958
191	0xbe32996b	-0.17441337
192	0x3ecd163b	0.40056023
193	0x3edca359	0.43093374
194	0xbda6be18	-0.08141726
195	0xbd3a67fd	-0.045509327
196	0xbeba29fd	-0.3636016
197	0x3bb8d9da	0.0056412043
198	0xbf0834c5	-0.5320552
199	0x3dc06c12	0.09395613
200	0x3eb14429	0.34622315
201	0x3f185179	0.5949932
202	0xbe4926e6	-0.19643745
203	0xbe8956d9	-0.26824072
204	0x3dec5b0c	0.11540803
205	0xbd8a9d88	-0.06768328
206	0xbd793055	-0.06083711
207	0x3ebd2fa6	0.36950415
208	0x3e4ec485	0.20192154
209	0x3ec3e8bd	0.38263503
210	0x3f0d29f1	0.5514212
211	0xbebeba59	-0.37251547
212	0xbeaa23a9	-0.33230332
213	0xbdf4bc17	-0.11949938
214	0xbefdc228	-0.49562192
215	0x3cfc2f05	0.03078414
216	0xbea7dbc3	-0.32784852
217	0x3e470677	0.1943606
218	0xbd9081ce	-0.07056008
219	0x3cab4ba3	0.02091009
220	0x3f73c94a	0.9522902
221	0xbd47312e	-0.048630886
222	0xbdcaf64d	-0.099102594
223	0xbef22418	-0.47293162
224	0xbddabe4f	-0.1068083
225	0xbe3e1053	-0.18560915
226	0x3cb16518	0.02165465
227	0x3e10bc2e	0.14134285
228	0xbe5b8801	-0.214386
229	0xbe7303ae	-0.23731872
230	0x3c9e14d6	0.019297045
231	0x3e9b5746	0.30340022
232	0x3cbc56c7	0.022990597
233	0x3da3bd4d	0.07995091
234	0x3d9ada4f	0.0756117
235	0x3e12998a	0.14316383
236	0x3ee38ae2	0.44441897
237	0xbdc6bd6e	-0.097040996
238	0xbf187db4	-0.5956681
239	0xbf14aece	-0.5807923
240	0x3e06ee50	0.13176847
241	0x3ecf3ba9	0.40475205
242	0x3d9336bf	0.07188176
243	0xbeddb2a6	-0.4330036
244	0xbf1fb76d	-0.6238926
245	0xbf25a65c	-0.6470697
246	0xbe6d8c1c	-0.23197979
247	0x3e970a36	0.29499978
248	0x3eb6e4bb	0.35721382
249	0x3e82f7e5	0.25579754
250	0xbeb56f0f	-0.35436293
251	0x3ef9d82f	0.48797747
252	0xbcb09823	-0.02155692
253	0x3ddeca8b	0.10878476
254	0x3e4170ff	0.18890761
255	0xbdbea749	-0.09309251

mid_part.2.bias f4 [12]
0	0xbc5877e4	-0.013212178
1	0xbdb092be	-0.08621739
2	0xbdd6e055	-0.10492007
3	0x3d7346e0	0.059393764
4	0xbd9ef5d2	-0.0776173
5	0xbd725955	-0.059167225
6	0xbf8470cf	-1.0346926
7	0x3d372c90	0.044720232
8	0xbe9b2b97	-0.30306694
9	0xbb43e504	-0.0029891143
10	0xbea315fe	-0.31852716
11	0xbd6a17dc	-0.05715166

mid_part.3.weight f4 [12]
0	0x3f363ef2	0.71189797
1	0xbe289818	-0.16464269
2	0x3e3724de	0.17885157
3	0xbed2bb0c	-0.4115833
4	0x3eb62952	0.355784
5	0x3f820d2f	1.0160273
6	0x3b568d5a	0.003273806
7	0x3f716a2e	0.9430264
8	0x3cb0e751	0.021594675
9	0xbf00528c	-0.50125957
10	0x3dbf4a0a	0.09340294
11	0x3e9faf6c	0.31188524

mid_part.4.weight f4 [12, 12, 3, 3]
0	0x3b402e5d	0.002932451
1	0x3d5accff	0.053418156
2	0xba87019e	-0.0010300165
3	0x3d0aaca5	0.033856053
4	0xbe8ae555	-0.2712809
5	0x3eb8f23e	0.36122316
6	0x3d5a7e61	0.05334318
7	0xbefef2a1	-0.49794486
8	0x3e9363a5	0.2878696
9	0xbd665f14	-0.056243017
10	0xbe170f15	-0.14751847
11	0xbe234299	-0.15943374
12	0xbdc7eefb	-0.09762379
13	0x3e9b1563	0.30289754
14	0x3e059a77	0.13047205
15	0x3d8c9c36	0.06865732
16	0x3dfc41d6	0.12317245
17	0xbdcea414	-0.10089889
18	0xbd2f68a1	-0.04282439
19	0xbe821aeb	-0.25411162
20	0x3eb2e661	0.3494139
21	0xbdd6555c	-0.104655
22	0x3e20240f	0.15638755
23	0x3e50fd28	0.20409071
24	0xbd5f223a	-0.054476
25	0x3e475d71	0.19469239
26	0xbbd1fed7	-0.006408553
27	0x3de9664d	0.113964655
28	0x3e0557e9	0.13021816
29	0xbd70582d	-0.05867784
30	0x3e817490	0.25284243
31	0xbf85e53f	-1.0460585
32	0x3c1fdfeb	0.009757976
33	0x3e9875b9	0.29777315
34	0x3dc6ddbd	0.09710262
35	0xbdb54a48	-0.08852059
36	0x3da9b1df	0.08285879
37	0xbd51b11d	-0.0511943
38	0xbdb34204	-0.08752826
39	0x3e504621	0.20339252
40	0x3e89577d	0.2682456
41	0xbf69cc5b	-0.91327447
42	0x3e82a498	0.255162
43	0xbead3343	-0.33828172
44	0xbef7feaf	-0.48436496
45	0xbdb66d32	-0.08907546
46	0x3d9f66b3	0.0778326
47	0xbd8ff882	-0.07029821
48	0x3e13d43a	0.14436427
49	0x3eb14974	0.34626353
50	0xbed2b6bf	-0.4115505
51	0x3e38e664	0.18056637
52	0xbcb3dc83	-0.021955734
53	0xbdd94eb7	-0.10610717
54	0x3db78e6e	0.08962713
55	0xbca30d5c	-0.019903831
56	0xbdf71080	-0.12063694
57	0x3db4eaf3	0.088338755
58	0xbed75a82	-0.4206124
59	0x3e6ad77b	0.22933762
60	0xbe2f28e3	-0.17105441
61	0x3e96353e	0.29337496
62	0xbed24e95	-0.41075578
63	0x3d2cc88e	0.04218345
64	0x3e2b3954	0.16721088
65	0xbde7c9a5	-0.113177575
66	0x3c8f50b5	0.017494539
67	0xbedab279	-0.4271429
68	0x3efb1c0c	0.49044836
69	0xbebf2b67	-0.373378
70	0xbe3bfe44	-0.18358713
71	0x3f43641a	0.7632462
72	0xbcb7114b	-0.022347113
73	0x3d08ecc0	0.033428907
74	0xbca6251d	-0.020281369
75	0x3d961f43	0.073301814
76	0xbed3e963	-0.41388997
77	0xbd778869	-0.060432825
78	0x3d82c895	0.06385914
79	0xbe8fbe3e	-0.2807483
80	0xbe8054b3	-0.2506462
81	0xbd2d60fd	-0.042328823
82	0xbdd1e8a9	-0.102494545
83	0x3ce2a71d	0.027667576
84	0xbe796dd2	-0.243583
85	0xbd86d845	-0.06584219
86	0xbd83a03c	-0.06427047
87	0xbea43d8c	-0.32078207
88	0xbbef30f9	-0.007299539
89	0x3d72442f	0.059147056
90	0xbe824670	-0.25444365
91	0x3e7cd398	0.24690092
92	0x3ddddaf6	0.10832779
93	0xbba69eb2	-0.005084836
94	0xbc3c448d	-0.011490953
95	0xbcd7ea9d	-0.02635699
96	0xbd5c336c	-0.053759977
97	0x3c0affdb	0.008483852
98	0xbe50a82a	-0.2037665
99	0x3db785bd	0.089610554
100	0xbe1ff08f	-0.1561911
101	0xbe09f290	-0.13471437
102	0xbb3c5e93	-0.0028742894
103	0x3e33846b	0.17530982
104	0xbc24f3ca	-0.0100678895
105	0xbe13cbdc	-0.14433235
106	0x3dfc514c	0.12320194
107	0x3d82c9b5	0.06386129
108	0x3e4e081f	0.20120285
109	0xbe932d32	-0.2874542
110	0xbea8997d	-0.32929602
111	0xbec49f22	-0.3840266
112	0x3ecc5475	0.39908186
113	0x3e3e3d59	0.1857809
114	0x3ea93620	0.33049107
115	0xbdfa9c6c	-0.12236866
116	0x3c64207c	0.0139237605
117	0x3d3d44d1	0.046208207
118	0xbddfc75c	-0.10926697
119	0xbed2e234	-0.41188204
120	0xbdbfc85b	-0.09364387
121	0xbf57894f	-0.8419389
122	0x3df055a9	0.117350884
123	0xbd8d1ce5	-0.06890277
124	0x3da0681c	0.07832357
125	0xbe0240cd	-0.12720032
126	0xbdff9870	-0.12480247
127	0x3f15177f	0.5823898
128	0xbcfa886a	-0.030582625
129	0x3e136f19	0.14397849
130	0xbdcb5e5f	-0.09930109
131	0xbe6c13fd	-0.230545
132	0xbe136181	-0.14392664
133	0x3c9c97d1	0.01911536
134	0xbd88023f	-0.066410534
135	0x3d187dcb	0.03722934
136	0xbd4cd433	-0.050007056
137	0x3ccfd67d	0.02537083
138	0xbdd781f1	-0.10522831
139	0x3e1af3b4	0.15132028
140	0x3e908ff5	0.2823483
141	0x3dc5f742	0.09666301
142	0xbd6c2dcc	-0.057660863
143	0x3df655f4	0.12028113
144	0x3da13384	0.07871154
145	0x3e38bbff	0.18040465
146	0xbee5e99f	-0.449048
147	0x3d97a96d	0.07405362
148	0x3ec73f92	0.38915688
149	0x3e955f74	0.29174387
150	0xbd87d38a	-0.06632145
151	0xbe7a31c1	-0.24433042
152	0xbd3722e3	-0.044711005
153	0x3d774b69	0.06037465
154	0x3d13ca81	0.036081795
155	0xba62a0a9	-0.0008645156
156	0xbed80498	-0.42191005
157	0x3e3727da	0.17886296
158	0x3cda8454	0.026674427
159	0x3db7b016	0.089691326
160	0xbd043ff9	-0.03228757
161	0xbc22d02a	-0.0099373255
162	0x3e04bffb	0.1296386
163	0x3f0f0299	0.5586334
164	0x3eee8044	0.46582234
165	0xbe922fe6	-0.2855217
166	0xbfa0eae6	-1.2571685
167	0xbd8a56c4	-0.067548305
168	0x3ccfadb7	0.025351388
169	0xc0389ee8	-2.8846989
170	0xbeb6fb09	-0.357384
171	0xbef7bb94	-0.48385298
172	0x3e98c75f	0.29839608
173	0xbf114f79	-0.5676189
174	0x3e33c0dc	0.17554039
175	0xbe86fead	-0.26366177
176	0x3ead41ee	0.33839363
177	0xbe92f79c	-0.28704536
178	0x3d786374	0.06064172
179	0xbe4b1b7f	-0.19834708
180	0xbf0aa419	-0.54156643
181	0xbf1f0ab4	-0.62125707
182	0x3f14dc8f	0.58149046
183	0xbea40727	-0.32036707
184	0xbae07eb3	-0.0017127603
185	0xbd73df3a	-0.059539057
186	0x3da653fe	0.08121489
187	0x3ef1e090	0.4724164
188	0x3e848fb9	0.25890902
189	0x3e63fcdd	0.22264428
190	0xbded40fa	-0.11584659
191	0xbd885845	-0.06657461
192	0xbe333287	-0.17499743
193	0xbe52d6d6	-0.20589766
194	0x3c4999e9	0.012304761
195	0x3cc4cd8e	0.024023797
196	0x3e5432e7	0.20722543
197	0xbec0792b	-0.37592444
198	0x3eb2fb40	0.34957314
199	0x3ef3c48f	0.476109
200	0x3ec64d5a	0.3873089
201	0x3d065222	0.03279317
202	0x3f49d744	0.78844094
203	0x3e728d2e	0.23686668
204	0x3f21fc28	0.63275385
205	0xbc37ffc1	-0.01123041
206	0x3f189e7d	0.59616834
207	0xbe4d1037	-0.20025717
208	0x3eb5c36b	0.35500655
209	0x3dfad9f2	0.12248601
210	0x3db50351	0.08838523
211	0xbefca5c3	-0.49345216
212	0xbea9fc96	-0.3320052
213	0xbeae60c9	-0.34058216
214	0x3ed4a3dd	0.41531268
215	0x3e5c1df3	0.214958
216	0xbe2f2227	-0.17102872
217	0xbed5e56c	-0.41776597
218	0xbe09a306	-0.13441095
219	0xbd4611f4	-0.048356965
220	0xbdd16702	-0.10224725
221	0xbecd46d4	-0.400931
222	0x3cd8e837	0.026477916
223	0x3de158e8	0.11003286
224	0xbe195bbc	-0.149764
225	0xbf063e65	-0.52438956
226	0xbe04261c	-0.12905163
227	0xbe7558f0	-0.23959708
228	0xbf171e3c	-0.5903051
229	0xbed6fad7	-0.4198825
230	0xbecbfa13	-0.3983923
231	0xbecfcd10	-0.40586138
232	0xbead76a6	-0.33879584
233	0xbe7afb77	-0.24509989
234	0x3e701bbc	0.2344808
235	0x3e54f95c	0.20798248
236	0xbe114db0	-0.14189792
237	0xbe8f9715	-0.28044954
238	0x3e8aa1a9	0.27076462
239	0x3e8c6754	0.27422583
240	0xbeb3d0b2	-0.3512016
241	0xbe67225e	-0.22571704
242	0x3dccf7fc	0.10008237
243	0x3e817dd6	0.25291318
244	0x3d975f62	0.0739124
245	0xbd6edc30	-0.058315456
246	0x3f4ad3ce	0.7922944
247	0x3e1155d1	0.14192893
248	0xbe15a70f	-0.14614509
249	0xbda8d72f	-0.08244168
250	0x3e5df9ef	0.21677373
251	0x3d60d95a	0.054894783
252	0xbd99f295	-0.07516972
253	0x3ebf3e10	0.37352037
254	0x3e7c06e9	0.24612011
255	0xbe73f0b2	-0.23822287

mid_part.4.bias f4 [12]
0	0xbe002954	-0.12515765
1	0xbdcea94b	-0.10090884
2	0xbe39c03e	-0.18139741
3	0xbd95599c	-0.07292482
4	0x3c85839f	0.016298113
5	0xbd6c5242	-0.057695635
6	0x3c1b25d9	0.009469473
7	0x3d9ca899	0.07649345
8	0x3cf68ead	0.03009733
9	0xbe14aef3	-0.14519863
10	0xbd0541c2	-0.032533415
11	0x3e3db622	0.1852651

mid_part.5.weight f4 [12]
0	0xbe846f50	-0.25866175
1	0x3e581a15	0.211037
2	0xbdec747d	-0.11545656
3	0xbd98160a	-0.074260786
4	0xbe287893	-0.16452245
5	0x3f3f2043	0.746586
6	0x3f7cfd1a	0.988237
7	0x3d5d06fd	0.053961743
8	0x3f7f7364	0.9978545
9	0xbeeb4960	-0.45954418
10	0xbeb6ca4d	-0.35701218
11	0xbe5b736e	-0.21430752

mid_part.6.weight f4 [12, 12, 3, 3]
0	0x3e5d676c	0.21621484
1	0x3e95657f	0.29178998
2	0xbe0378ea	-0.12839094
3	0x3e4303fb	0.19044487
4	0xbe93e993	-0.2888914
5	0x3e88a76b	0.2669023
6	0x3e328d71	0.17436768
7	0x3de84ad8	0.113424
8	0x3aba5954	0.0014217296
9	0xbbdb004b	-0.0066833845
10	0x3caa2c55	0.020773092
11	0x3d277a01	0.040887836
12	0xbdaf406e	-0.08557211
13	0xbd7e0527	-0.062016632
14	0xbe94150a	-0.28922302
15	0xbda012a9	-0.07816059
16	0x3ab3d301	0.00137195
17	0x3e425115	0.18976243
18	0xbd84b32a	-0.06479485
19	0x3e25afc0	0.16180325
20	0xbe135995	-0.14389642
21	0xbd39bd64	-0.045346633
22	0xbe989cbc	-0.2980708
23	0x3e3e012c	0.18555135
24	0xbcaa23a8	-0.020768955
25	0xbe394581	-0.1809292
26	0xba0985b1	-0.0005246057
27	0x3d606413	0.05478294
28	0xbe88c1ff	-0.26710507
29	0x3d6b7805	0.057487506
30	0x3c23875b	0.009981002
31	0x3e9cf918	0.30658793
32	0xbe9f3917	-0.31098244
33	0xbdcbdd4c	-0.099543184
34	0x3e704186	0.23462495
35	0xbe68af62	-0.22723153
36	0x3c77aea1	0.015117318
37	0x3d90861a	0.07056828
38	0x3dd1ed22	0.102503076
39	0x3c59fc78	0.013304822
40	0xbb8213e2	-0.0039696554
41	0x3d1c2053	0.038116764
42	0x3d683ccd	0.05669861
43	0x3ddd42f3	0.10803785
44	0xbd8142ba	-0.06311555
45	0xbcc59e37	-0.024123294
46	0xbc904e76	-0.017615538
47	0xbe31cb1d	-0.17362638
48	0xbd70c4fe	-0.058781616
49	0x3e854860	0.2603178
50	0xbdf2f1e1	-0.11862541
51	0x3c574014	0.013137836
52	0xbd1f9361	-0.03895891
53	0x3c0785ab	0.008271615
54	0x3dac7fd2	0.08422817
55	0xbe571f6e	-0.21008083
56	0xbe26be53	-0.1628354
57	0xbd8d9da0	-0.0691483
58	0x3f12f2d6	0.5740179
59	0x3d127c3f	0.03576302
60	0xbc9afa1f	-0.018918095
61	0xbe2ebcc3	-0.17064194
62	0x3dc7f0c0	0.09762716
63	0x3e641a7b	0.22275726
64	0x3d995a95	0.0748798
65	0xbd8bcf74	-0.06826678
66	0x3bdff772	0.0068349177
67	0x3d94d9f8	0.07268137
68	0xbe4384ea	-0.19093671
69	0xbcd659f9	-0.02616595
70	0x3d8ef474	0.069802195
71	0x3dfaf90c	0.12254533
72	0x3d3e1891	0.046410147
73	0x3e2fa69a	0.17153397
74	0x3c356c50	0.011073187
75	0xbeb218ab	-0.34784445
76	0x3ef6b2d4	0.4818331
77	0xbef95b82	-0.48702627
78	0xbdb5e6a1	-0.088818796
79	0xbe4dab03	-0.20084767
80	0x3d468f88	0.048476726
81	0x3c9ad9a9	0.018902617
82	0x3b54fc91	0.0032499174
83	0xbc98b468	-0.018640712
84	0x3c31855c	0.010835018
85	0x3cc79456	0.024362724
86	0x3c05e323	0.008171829
87	0x3d12bfa4	0.035827294
88	0x3dbe9ab7	0.09306853
89	0x3e0480ce	0.1293976
90	0xbdf2114f	-0.118197076
91	0xbd7f6626	-0.062353276
92	0x3e364a1a	0.17801705
93	0x3c6cda55	0.014456351
94	0xbd8e3b9b	-0.069449626
95	0xbdefd3b4	-0.11710301
96	0xbbbf4950	-0.005837597
97	0xbcf92179	-0.030411469
98	0x3d5bf9f7	0.053705182
99	0xbe2690f0	-0.16266227
100	0xbe34efbc	-0.17669576
101	0xbd9da005	-0.07696537
102	0xbe9abc11	-0.30221608
103	0x3edcc44f	0.43118522
104	0xbecf4bb9	-0.4048746
105	0xbe7758b7	-0.24154936
106	0xbe3bb248	-0.18329728
107	0xbc58d15d	-0.01323351
108	0x3e98c3c9	0.29836872
109	0x3e007d1a	0.12547722
110	0x3e28f334	0.16499025
111	0x3d9a7bd5	0.0754315
112	0xbe8875eb	-0.26652464
113	0x3db1f8a6	0.08690004
114	0x3cd7f079	0.026359783
115	0xbc857d04	-0.016294964
116	0xbc696520	-0.0142453015
117	0x3dee2271	0.11627663
118	0x3dd787ef	0.10523974
119	0xbd12c289	-0.035830054
120	0xbd843669	-0.064556904
121	0xbeb84639	-0.35991076
122	0xbe70c4da	-0.23512593
123	0x3ea7c28e	0.3276562
124	0xbe0ba549	-0.1363727
125	0xbdd9dbe7	-0.10637646
126	0xbe3e8192	-0.18604115
127	0x3e819a8a	0.25313216
128	0x3b358e48	0.0027703214
129	0xbdaf29a1	-0.08552862
130	0xbe9fd68e	-0.3121838
131	0xbd27caa2	-0.04096473
132	0xbdf86d7a	-0.12130256
133	0x3e42cdb7	0.19023786
134	0x3cbe6e8c	0.023246072
135	0x3e2ea0ab	0.17053477
136	0xbdab8d5a	-0.0837657
137	0xbd9c7968	-0.07640344
138	0x3df092c9	0.11746747
139	0x3eb75954	0.3581034
140	0xbe0378de	-0.12839076
141	0xbc828cdf	-0.015936313
142	0xbea3685d	-0.3191556
143	0xbd9520a2	-0.07281615
144	0xbcc0cc2e	-0.02353486
145	0x3dd8f11d	0.10592864
146	0x3df13605	0.117778815
147	0xbd0e7556	-0.03477987
148	0xbe2c58ec	-0.16830796
149	0xbd33944e	-0.043842606
150	0xbd83a275	-0.064274706
151	0xbde20e11	-0.11037839
152	0xbb744afc	-0.003727614
153	0xbcd2d2e7	-0.025735332
154	0x3e1b45f6	0.15163407
155	0xbe2367e5	-0.15957601
156	0xbe31e7b0	-0.17373538
157	0xbe7cbcfd	-0.24681468
158	0xbd7c2a8a	-0.061564006
159	0xbcb9ba5c	-0.02267187
160	0x3e53f075	0.20697196
161	0x3de26c12	0.11055769
162	0x3cc5bf6b	0.024139127
163	0xbd65d995	-0.056115706
164	0xbe23d54f	-0.1599934
165	0xbe60286b	-0.21890418
166	0x3e1ba423	0.15199332
167	0x3e3419de	0.17587993
168	0x3ce7b10b	0.028282663
169	0x3c28b318	0.0102966055
170	0x3aefc509	0.0018292974
171	0x3e892323	0.2678462
172	0x3e562de4	0.20915943
173	0x3d939d6d	0.07207761
174	0xbace4c8b	-0.0015739364
175	0xbea602be	-0.32423967
176	0x3db2674b	0.08711108
177	0x3e53b9a2	0.20676282
178	0x3f09da09	0.5384832
179	0xbda91303	-0.08255579
180	0x3e3ced2f	0.18449853
181	0x3e65ef56	0.2245458
182	0xbdc90930	-0.098162055
183	0xbee9a614	-0.4563452
184	0xbd272d97	-0.040814962
185	0x3e4fdb99	0.20298614
186	0xbb42e981	-0.002974123
187	0x3e287b1f	0.16453217
188	0x3cf795f6	0.030222874
189	0xbc174d57	-0.009234748
190	0xbe0993fb	-0.13435356
191	0x3d6a5c2a	0.0572168
192	0xbd3a37b1	-0.045463268
193	0x3e4d91f0	0.20075202
194	0x3dbc0e98	0.09182471
195	0x3db3b9cb	0.087756716
196	0x3c8ad981	0.016949417
197	0xbd805503	-0.06266215
198	0xbc5f7541	-0.013638795
199	0x3e6b82f4	0.22999173
200	0xbdff440a	-0.12464149
201	0x3d8d8bd1	0.069114335
202	0xbe467229	-0.19379486
203	0xbe9d7650	-0.30754328
204	0xbc9df51c	-0.019281916
205	0x3dcf9c4d	0.10137234
206	0x3e00518c	0.12531108
207	0xbdcfa2c8	-0.1013847
208	0xbbedb78a	-0.0072545456
209	0xbe4f4b4f	-0.20243572
210	0xbe41df75	-0.18932898
211	0x3e83f7a3	0.2577487
212	0x3de355fe	0.11100386
213	0xbe05d847	-0.13070785
214	0x3ddc2c95	0.10750691
215	0x3de2411f	0.11047577
216	0x3df961cd	0.12176857
217	0xbe8087df	-0.2510366
218	0xbeaf89f7	-0.34284946
219	0x3e2c1ee7	0.16808663
220	0xbf421025	-0.75805885
221	0xbc6f2a81	-0.014597536
222	0xbce5615c	-0.028000526
223	0xbe828d9d	-0.25498667
224	0xbe106269	-0.1410004
225	0x3e0fe2aa	0.14051309
226	0x3e2f296c	0.17105645
227	0x3dbd7803	0.09251406
228	0x3e8ff020	0.28112888
229	0x3ee25b43	0.44210252
230	0x3cd9d863	0.026592439
231	0x3d880a93	0.06642642
232	0x3ed45d0e	0.41477245
233	0x3e8b686b	0.27228102
234	0x3e34edc5	0.17668827
235	0xbe198d90	-0.14995408
236	0xbd5975f6	-0.053091012
237	0xbe8005a2	-0.25004297
238	0x3e19e5ad	0.1502902
239	0xbe4fbe73	-0.20287494
240	0x3d149848	0.03627804
241	0x3e0ea11a	0.13928643
242	0x3e62f526	0.22163829
243	0x3c3fadd6	0.011699161
244	0xbe13c9e2	-0.14432481
245	0x3e4e2973	0.20132999
246	0x3e89aeac	0.26891077
247	0xbcec203e	-0.028823968
248	0x3e737cac	0.23778027
249	0xbd1b72d7	-0.037951317
250	0x3d0cbfc3	0.034362566
251	0xbebe05c9	-0.3711379
252	0x3d44fc40	0.048092127
253	0x3dfe817f	0.12427043
254	0x3d6b226e	0.05740588
255	0x3d13191d	0.03591262

mid_part.6.bias f4 [12]
0	0xbd991ed2	-0.07476582
1	0x3dbb73b0	0.09152925
2	0x3e5ba240	0.21448612
3	0xbdc3192f	-0.09526288
4	0x3e134a39	0.14383782
5	0xbf0261b2	-0.5093032
6	0x3e9da31c	0.30788505
7	0x3e729f15	0.23693497
8	0x3ec21c74	0.37912333
9	0x3cfd2569	0.030901628
10	0xbd48244d	-0.048862744
11	0xbbfa14f4	-0.0076318923

mid_part.7.weight f4 [12]
0	0x3f723f21	0.9462758
1	0x3f59681c	0.84924483
2	0x3e812c5d	0.2522916
3	0xbe9a557f	-0.30143353
4	0x3dab1a2a	0.083546
5	0x3f19df5b	0.6010644
6	0x3f80b45f	1.0055045
7	0xbd7aa2f4	-0.06119056
8	0x3f59cb74	0.8507607
9	0x3dc5bc49	0.09655053
10	0x3c198132	0.0093691815
11	0x3d5cb14e	0.05388003

mid_part.8.weight f4 [12, 12, 3, 3]
0	0xbccf6571	-0.025316926
1	0xbdc47f33	-0.09594574
2	0x3cd9e7d4	0.026599802
3	0x3d280ef4	0.041029885
4	0x3eca0856	0.39459485
5	0xbcbcfaa7	-0.02306874
6	0xbc8b0c63	-0.01697368
7	0xbd65b22a	-0.056078114
8	0xbc82191e	-0.015881117
9	0xbc070786	-0.00824154
10	0xbb9f1a24	-0.004855411
11	0xbd3477b5	-0.044059474
12	0x3d39528d	0.045244742
13	0x3e553186	0.20819673
14	0xbc787622	-0.015164884
15	0xbce51aea	-0.027966935
16	0x3d1115a8	0.035421044
17	0xbd93374c	-0.071882814
18	0xbc4f7f8e	-0.012664689
19	0xbd4aa44b	-0.04947309
20	0xbb66c741	-0.003521398
21	0xbd912058	-0.07086247
22	0xbd9982df	-0.07495665
23	0x3ce52f1a	0.027976561
24	0x3d04fd30	0.03246802
25	0x3cfc9002	0.030830387
26	0xbc9ca2ba	-0.019120563
27	0x3b7461e4	0.0037289793
28	0x3c3d76b5	0.0115639465
29	0xbc29bb6c	-0.010359626
30	0xbb0afd0a	-0.0021207952
31	0xbcd36df5	-0.025809268
32	0x3cd6f0c7	0.026237858
33	0xbc8bf73b	-0.017085662
34	0x3c6681da	0.014069045
35	0x3bb11b2c	0.0054048505
36	0xbae68aaa	-0.0017588933
37	0xbd031a8b	-0.032007735
38	0xbd21e84b	-0.039528172
39	0xbd1b0203	-0.037843715
40	0x3d422b68	0.047404677
41	0xbd078a3d	-0.03309082
42	0xbc927557	-0.017878218
43	0x3b1ff5e3	0.0024408035
44	0xbcaf22d6	-0.021378916
45	0x3969b466	0.00022287815
46	0x3d1a396c	0.037652418
47	0x3c7ee360	0.01555714
48	0x3d9c62c2	0.07636024
49	0xbde932ee	-0.11386667
50	0x3d67035e	0.056399696
51	0x3c7797b7	0.015111855
52	0xbcb23fa7	-0.021758867
53	0xbce33ac1	-0.027737977
54	0xbd2b9ce6	-0.041897677
55	0xbcbb9327	-0.022897316
56	0xbcdcdbc3	-0.02696026
57	0x3dbb4b55	0.09145228
58	0x3f8ad888	1.084733
59	0x3db02374	0.08600512
60	0xbda86b91	-0.08223642
61	0x3b313f1b	0.002704567
62	0xbd5a35c5	-0.053273935
63	0x3c599ba5	0.013281737
64	0x3b0acb5c	0.002117834
65	0x3c329ccc	0.010901641
66	0x3cf50181	0.029907944
67	0x3d7a7693	0.061148237
68	0xbc656d53	-0.014003116
69	0x3c602c78	0.013682477
70	0x3d243da4	0.040097848
71	0xbc624fd7	-0.013812981
72	0xbc1a95b5	-0.009435107
73	0xbdb8a79b	-0.09016343
74	0xbc1fce22	-0.009753736
75	0x3c4c1154	0.012455303
76	0xbb6d4881	-0.0036206546
77	0xbd36f3ae	-0.044665985
78	0xbd2e5f19	-0.04257116
79	0xbe11bf89	-0.14233221
80	0xbd7097ae	-0.058738403
81	0x3cc4cc43	0.02402318
82	0x3d18124d	0.037126828
83	0x3d2c48c8	0.042061597
84	0x3dac8943	0.08424618
85	0x3d114dd5	0.035474617
86	0x3b9fdd12	0.0048786486
87	0x3d21d11f	0.039506074
88	0x3d8ba20b	0.068180166
89	0x3ce9fb55	0.028562227
90	0xbc1fd996	-0.009756466
91	0x3d018b96	0.03162726
92	0xb9c8e24a	-0.0003831557
93	0x3d6f68a2	0.058449395
94	0xbca83519	-0.020533131
95	0xbd7bdab9	-0.061487887
96	0xbcb2a2b8	-0.021806106
97	0xbcb69581	-0.022288086
98	0x3bcf1716	0.0063198907
99	0xbc0623a5	-0.008187209
100	0x3d3ecd27	0.046582367
101	0xbd05f3da	-0.032703258
102	0xba763e56	-0.0009393444
103	0x3cc33c2c	0.023832403
104	0x3b3483dd	0.0027544417
105	0xbca4a36b	-0.020097455
106	0xbd86e412	-0.0658647
107	0x3cd8d70a	0.026469726
108	0xbc005c25	-0.007834469
109	0xbed084e2	-0.40726382
110	0xbd91462e	-0.07093464
111	0x3f08e307	0.53471416
112	0x3ef14a45	0.47126976
113	0xbdda24c3	-0.10651543
114	0x3de983f7	0.114021234
115	0x3e3775e4	0.17916065
116	0x3da889f2	0.08229436
117	0xbdba94cb	-0.09110411
118	0xbd427771	-0.04747719
119	0xbda57545	-0.08079008
120	0xbe287d45	-0.16454037
121	0x3e0c8a30	0.1372459
122	0x3d39cb47	0.045359876
123	0xbcb786e0	-0.02240318
124	0xbe975ba9	-0.2956212
125	0x3def9870	0.11698997
126	0x3cd8539a	0.026407052
127	0xbc852b73	-0.01625607
128	0x3de55290	0.11197388
129	0x3e57af10	0.21062875
130	0x3e5eeba3	0.21769576
131	0x3e87192c	0.26386392
132	0xbaeb882f	-0.0017969663
133	0xbd05dd7e	-0.032681935
134	0x3dae0399	0.0849678
135	0x3d4bc198	0.049745172
136	0xbddc0898	-0.10743827
137	0xbea12fa2	-0.31481653
138	0x3e052af1	0.13004662
139	0x3b6a3a41	0.0035740288
140	0x3ec05e88	0.37572122
141	0xbc820cda	-0.015875269
142	0x3d1cbe01	0.03826714
143	0xbd2b8b52	-0.041880913
144	0x3d808884	0.06276038
145	0x3e0b7c7a	0.13621703
146	0x3d6a7983	0.05724479
147	0x3e285c3c	0.16441435
148	0x3dab4334	0.08362427
149	0xbdf368fc	-0.118852586
150	0x3df5ae13	0.11996093
151	0xbdedfa0e	-0.1161996
152	0x3b632cab	0.0034664075
153	0xbe17500c	-0.14776629
154	0xbbbf8ff6	-0.005846019
155	0xbc71f771	-0.014768467
156	0xbe094eb6	-0.13408932
157	0x3f328e57	0.69748443
158	0x3d6d01fd	0.057863224
159	0xbd7b2934	-0.06131859
160	0x3e816c8b	0.25278124
161	0x3e22f0d1	0.15912177
162	0x3e1d95aa	0.15389124
163	0xbee4a8f5	-0.44660154
164	0xbe7c89e1	-0.24661972
165	0x3e3e0c41	0.18559362
166	0xbeb06b96	-0.34457082
167	0xbeae2037	-0.34008953
168	0x3e831c45	0.25607505
169	0x3ec91883	0.39276513
170	0x3e06996b	0.13144462
171	0xbdf0106f	-0.117218845
172	0xbe994548	-0.2993567
173	0x3d493ff3	0.049133252
174	0x3d299626	0.04140296
175	0x3eae48b3	0.3403984
176	0x3b8eb8e2	0.004355536
177	0xbd892183	-0.06695845
178	0xbe838e02	-0.2569428
179	0xbe254a4d	-0.16141625
180	0xbc207a4d	-0.009794784
181	0xbee322ec	-0.4436258
182	0x3d9815d2	0.07426037
183	0x3c05328d	0.008129728
184	0x3da0b76d	0.07847486
185	0xbe0e8650	-0.13918424
186	0x3da36e7a	0.07980056
187	0x3ea82909	0.32843807
188	0x3d9a07d5	0.07521025
189	0xbe182cfb	-0.14860909
190	0xbe73fade	-0.23826167
191	0xbe274d35	-0.16338046
192	0xbed9149e	-0.42398542
193	0x3c398c20	0.011324912
194	0xbe081035	-0.13287432
195	0xbe0b0361	-0.13575508
196	0x3d819cc6	0.0632873
197	0xbb4fb05f	-0.0031690819
198	0xbd7536bb	-0.05986665
199	0x3e542f89	0.20721258
200	0x3ea6509c	0.32483375
201	0x3edb0d43	0.42783555
202	0x3ed26be6	0.41097945
203	0xbed0b78f	-0.40765044
204	0x3dfa42ae	0.122197494
205	0x3d8028ac	0.062577575
206	0x3e0a386f	0.1349809
207	0xbc5a687a	-0.013330573
208	0x3dfec5c6	0.12440066
209	0xbdf72244	-0.120670825
210	0xbed51c27	-0.4162304
211	0xbf009c1c	-0.50238204
212	0xbdd2f6f1	-0.103010066
213	0x3de61ea6	0.112363145
214	0x3e76819a	0.24072877
215	0xbe4c4f79	-0.19952191
216	0x3d8e6158	0.069521606
217	0x3e642a0d	0.22281666
218	0xbd68aeda	-0.056807376
219	0x3e5078d1	0.20358588
220	0x3f147aaa	0.5799967
221	0xbea1cbef	-0.316009
222	0x3d9e53cc	0.07730827
223	0xbd6f7442	-0.05846048
224	0xbdc1bd04	-0.0945988
225	0xbd424590	-0.04742962
226	0x3de61706	0.1123486
227	0xbd11ba6a	-0.03557817
228	0xbead6d71	-0.3387256
229	0x3d27b602	0.04094506
230	0xbb8bebe0	-0.004270062
231	0xbe4da68b	-0.20083062
232	0xbe07f3c2	-0.1327658
233	0xbd46bfb8	-0.04852268
234	0xbdc5debc	-0.09661624
235	0xbdd2111b	-0.10257169
236	0x3df46345	0.11932997
237	0xbea03f6f	-0.31298396
238	0xbe5d54d9	-0.21614398
239	0x3e644d68	0.22295153
240	0xbcbdca1d	-0.023167664
241	0x3dab2641	0.08356906
242	0x3daf490c	0.085588545
243	0x3d2342fb	0.0398588
244	0x3d6aa1d6	0.057283245
245	0xbdb062e8	-0.08612615
246	0xbe1d2a0e	-0.15348074
247	0xbdcce620	-0.1000483
248	0x3e9537db	0.29144177
249	0x3d6c5506	0.057698272
250	0xbe70e474	-0.23524648
251	0x3e3331ba	0.17499438
252	0xbe912ef1	-0.28356126
253	0x3e0a3a11	0.13498713
254	0xbdb27f1c	-0.087156504
255	0xbf29985c	-0.66248107

mid_part.8.bias f4 [12]
0	0x3e457509	0.19282927
1	0xbe348202	-0.17627719
2	0x3e425cda	0.18980733
3	0xbf141fab	-0.5786082
4	0x3ef912a6	0.4864704
5	0x3d7b23b8	0.06131336
6	0x3ef7c7f8	0.48394752
7	0x3c41ea32	0.011835622
8	0x3ed7f728	0.42180753
9	0xbeb37e72	-0.35057408
10	0xbf0d9764	-0.5530913
11	0xbe583a65	-0.21116026

mid_part.9.weight f4 [12]
0	0x3f748b97	0.955255
1	0x3ec1a608	0.37821984
2	0x3ea72527	0.32645532
3	0x3e57a002	0.21057132
4	0x3f729d53	0.9477131
5	0x3e06d846	0.1316844
6	0xbbb47ca0	-0.0055080205
7	0x3e2bde0c	0.16783923
8	0x3dc8006d	0.09765706
9	0x3e8dee36	0.27720803
10	0x3ea1d30c	0.31606328
11	0x3f27d66b	0.6556155
